checkpoints/MNIST/frequentist/model_lenet.pt (torch, 250039 bytes, 10 tensors)

conv1.weight f4 [6, 1, 5, 5]
0.11418809 0.028323919 0.06673877 -0.2231566 -0.10438253 0.33116075 -0.03076317 0.17210081
-0.11217862 -0.16706957 0.31331402 0.050998207 -0.077871844 -0.33672932 -0.17988516 0.023657825
0.2069334 0.14615631 -0.13924254 -0.16129914 0.25914896 0.13696851 0.13500147 -0.10204975
0.057067387 -0.018933376 0.0072751567 -0.051357172 0.023969218 0.2268258 0.07053886 0.046053562
0.2818835 0.3435951 0.13792324 0.10528353 0.3302729 0.31830877 0.2821032 0.17875944
-0.04612138 -0.004353055 0.029698877 0.088870056 0.16892402 0.051689543 -0.31967977 -0.23324412
-0.15334967 -0.16884111 0.28498176 0.32546133 0.0419189 -0.07006789 0.15387559 0.20560111
0.04417143 -0.03886799 -0.18966222 -0.15803216 0.16892752 0.14096135 0.1511755 -0.15826537
-0.04808946 0.13492182 -0.091754444 -0.14993781 -0.19872394 -0.32259694 0.15204233 0.23262815
-0.1518573 -0.15859915 -0.1899408 0.20144378 -0.02247085 -0.36276364 -0.40141302 -0.46119797
0.26993662 0.20576403 0.16601725 0.009568155 0.015163599 0.07918951 0.41077483 0.28760085
0.23699147 -0.093020685 -0.010596387 -0.0062687104 0.12256825 0.37576166 0.00942199 -0.22902802
-0.23820531 0.04273522 0.034591794 0.24215306 -0.04423117 -0.118417285 -0.31360447 -0.27160797
-0.28563038 0.18666783 -0.019691363 -0.1010535 0.12245595 0.24233846 -0.04115062 0.28543168
-0.022980124 0.25972244 0.0640834 0.34825075 0.060356986 0.09616295 0.31568143 0.3175064
0.10774782 0.11239633 0.21863802 -0.11998612 0.10396382 -0.06213214 -0.37073857 -0.2771832
0.050459813 0.30876023 -0.16976781 -0.17660129 0.059292804 -0.032594383 0.4119881 -0.49734524
-0.31665662 -0.08434463 0.19357009 0.121563695 -0.23166728 -0.06712022 0.108878516 0.39710933
0.16284497 -0.24184017 -0.008698221 0.029641636 0.27239046 0.34709087
00000000: 72db e93d 9007 e83c 56ae 883d 2a83 64be
00000010: 82c6 d5bd e78d a93e 0b03 fcbc 323b 303e
00000020: e8bd e5bd 4914 2bbe b26a a03e 7fe3 503d
00000030: 467b 9fbd c967 acbe d133 38be 0ece c13c
00000040: 59e6 533e 00aa 153e 9995 0ebe 9a2b 25be
00000050: 2caf 843e 7941 0c3e d33d 0a3e 76ff d0bd
00000060: 7ebf 693d 2b1a 9bbc 7064 ee3b e65b 52bd
00000070: 185b c43c 0645 683e ae76 903d a9a2 3c3d
00000080: 0953 903e b2eb af3e c03b 0d3e e49e d73d
00000090: 8819 a93e 5ef9 a23e d56f 903e b70c 373e
000000a0: c6e9 3cbd 12a4 8ebb 0f4b f33c 8101 b63d
000000b0: 6bfa 2c3e 6ab8 533d 11ad a3be 8cd7 6ebe
000000c0: b207 1dbe afe4 2cbe 21e9 913e dea2 a63e
000000d0: 27b3 2b3d c17f 8fbd 9091 1d3e 1989 523e
000000e0: 1aed 343d 0b34 1fbd d036 42be 2fd3 21be
000000f0: 56fb 2c3e 2c58 103e c0cd 1a3e 5110 22be
00000100: 74f9 44bd f228 0a3e c1e9 bbbd 4c89 19be
00000110: 4a7e 4bbe 6d2b a5be fcb0 1b3e 1336 6e3e
00000120: 7b80 1bbe d167 22be d77f 42be 4747 4e3e
00000130: ca14 b8bc 28bc b9be 0286 cdbe 2422 ecbe
00000140: 2235 8a3e ceb3 523e 6d00 2a3e c0c3 1c3c
00000150: be70 783c 1c2e a23d 1451 d23e 6b40 933e
00000160: e4ad 723e a181 bebd 789c 2dbc c169 cdbb
00000170: 1005 fb3d d563 c03e b15e 1a3c 5286 6abe
00000180: 18ec 73be 200b 2f3d 20b0 0d3d f9f6 773e
00000190: be2b 35bd c384 f2bd c490 a0be 3310 8bbe
000001a0: 253e 92be da25 3f3e c84f a1bc 23f5 cebd
000001b0: 2fca fa3d 9327 783e 8d8d 28bd 1a24 923e
000001c0: d040 bcbc 57fa 843e 283e 833d ec4d b23e
000001d0: e338 773d 15f1 c43d ffa0 a13e 3390 a23e
000001e0: e4aa dc3d 0c30 e63d a5e2 5f3e 48bb f5bd
000001f0: fcea d43d 457e 7ebd 72d1 bdbe f5ea 8dbe
00000200: f3ae 4e3d d215 9e3e 9dd7 2dbe f8d6 34be
00000210: 03dd 723d b081 05bd 1bf0 d23e 09a4 febe
00000220: d120 a2be e1bc acbd 3d37 463e 63f6 f83d
00000230: 303a 6dbe 5376 89bd b3fb de3d ea51 cb3e
00000240: d5c0 263e f3a4 77be fc82 0ebc 04d3 f23c
00000250: c376 8b3e e5b5 b13e

conv1.bias f4 [6]
-0.13174585 0.017153505 -0.007956726 -0.025527185 -0.00083283806 0.020449717
00000000: 62e8 06be 8285 8c3c ed5c 02bc 631e d1bc
00000010: d152 5aba 2a86 a73c

conv2.weight f4 [16, 6, 5, 5]
0.0122820195 -0.038565803 0.08997204 -0.03977071 -0.12631491 -0.008959734 -0.07723705 -0.15160996
-0.19039331 -0.13971214 -0.050704874 -0.18842195 -0.33529428 -0.15491033 0.009531103 -0.16127376
-0.16737965 0.054345056 0.120381735 0.030782722 -0.11722666 0.11066097 0.17442186 0.021051645
-0.09250946 0.017712424 0.048569765 -0.026508065 -0.1612072 0.018754227 -0.016651213 -0.116707094
-0.10642328 0.0611868 0.10608417 -0.165181 -0.032848664 0.078356445 0.11150413 0.16119295
-0.0021288742 0.1852421 0.20334159 0.13521905 -0.07627515 0.17962205 0.14955509 -0.008153395
-0.080089904 -0.078922726 -0.00843673 -0.067743376 0.077776305 -0.06456443 -0.18337613 -0.050697193
-0.035728607 -0.2202059 -0.14704339 0.0168634 -0.024856117 -0.07999087 -0.14041144 0.07746849
0.13000534 -0.12798794 -0.014062417 0.14266501 0.156423 0.17057084 -0.0016219605 0.054550316
0.13574235 0.065489605 -0.038460605 0.027525105 0.06121173 0.088478394 -0.090430975 -0.16029271
0.0868093 0.0023687 -0.07567412 -0.1279747 -0.21178529 -0.0008884349 -0.015107713 -0.048379693
-0.094693616 -0.03195774 0.05616449 -0.08300324 -0.1478218 -0.044173907 0.045660798 0.13019882
-0.043558292 0.079564184 -0.00010120848 -0.05625905 0.079130664 -0.09120754 -0.0800029 -0.10015007
0.07735579 -0.1666095 -0.1327106 -0.004942792 0.1970604 0.060812358 -0.03271364 0.038549777
0.16310179 0.06300126 0.03478366 0.09926767 0.074983954 0.024691902 -0.08901264 -0.10599209
0.22541247 0.06846479 -0.14820194 0.00013595803 -0.049791627 0.10645622 -0.10205315 -0.15666546
0.07058254 0.18079148 -0.09346603 -0.04950397 0.041825186 0.21891257 0.13359146 -0.024181796
0.116442434 0.2421174 0.026053386 -0.10029592 0.03672245 0.16644533 0.08967678 -0.04445797
-0.07879987 -0.018810827 -0.05663873 -0.13087769 -0.08268217 -0.19625066 0.14731705 0.017157845
0.034418333 -0.13621107 -0.058662273 -0.03220502 -0.1368516 -0.07579267 0.0768064 -0.05651831
-0.1070141 -0.11292032 -0.105793566 -0.0052497154 -0.13445716 -0.005629428 -0.025743378 -0.23903231
-0.12520202 -0.14230423 0.075937964 0.07645944 0.08330189 0.027937237 -0.12331042 0.048360333
-0.04573788 -0.0613046 -0.033998262 0.031050522 0.07695352 0.1719277 0.04492047 0.02468719
0.06077455 0.022049198 0.20130707 0.028503424 0.07494887 0.058813054 -0.13018475 -0.120268546
-0.08019791 -0.020225631 0.07462222 0.006168023 -0.023418877 -0.13220134 -0.17533484 -0.12513529
-0.12881488 -0.09389049 -0.081129536 0.049368676 -0.057296887 -0.043965384 -0.08479267 -0.051473152
0.012773117 -0.012715468 0.015977776 0.0647784 0.10356638 0.062362313 0.020862164 0.03647887
0.03005182 -0.030035082 0.053487077 0.020901373 -0.024989076 -0.11714217 -0.0030377626 0.025709227
-0.004510051 -0.018506046 0.012745262 -0.09620329 -0.11992934 -0.0055186376 0.1875617 0.17391357
0.1461546 -0.00701921 -0.050861303 -0.049296975 0.10846151 0.16432261 0.032801326 -0.060650975
-0.067716986 -0.08537306 -0.10008971 -0.119389735 -0.051701777 0.23309752 0.11836705 -0.020664638
-0.16823737 -0.061953094 0.09818647 0.10940042 0.094911195 0.008005639 0.06256435 0.12578095
00000000: 863a 493c 2df7 1dbd 4343 b83d 9de6 22bd
00000010: b258 01be d9cb 12bc 752e 9ebd a43f 1bbe
00000020: 77f6 42be b310 0fbe eaaf 4fbd aff1 40be
00000030: b1ab abbe d0a0 1ebe 5828 1c3c f324 25be
00000040: 9265 2bbe ec98 5e3d b38a f63d 0c2c fc3c
00000050: 8814 f0bd 38a2 e23d a59b 323e 8074 ac3c
00000060: 9a75 bdbd a519 913c 17f1 463d 7127 d9bc
00000070: 8013 25be 77a2 993c 2068 88bc 2104 efbd
00000080: 73f4 d9bd 039f 7a3d a842 d93d 3525 29be
00000090: 528c 06bd 5879 a03d 475c e43d c40f 253e
000000a0: 9584 0bbb 1bb0 3d3e c738 503e dd76 0a3e
000000b0: 2536 9cbd d8ee 373e f824 193e d195 05bc
000000c0: 2d06 a4bd 3da2 a1bd 363a 0abc 0abd 8abd
000000d0: 2f49 9f3d 5b3a 84bd f4c6 3bbe dca7 4fbd
000000e0: 2958 12bd a87d 61be 8b92 16be 1d25 8a3c
000000f0: 0e9f cbbc 41d2 a3bd 04c8 0fbe cda7 9e3d
00000100: 1f20 053e 450f 03be 0d66 66bc c716 123e
00000110: 5a2d 203e 1faa 2e3e f797 d4ba 2770 5f3d
00000120: 0b00 0b3e 6a1f 863d de88 1dbd 547c e13c
00000130: 27b9 7a3d 2934 b53d e033 b9bd c623 24be
00000140: 13c9 b13d 313c 1b3b 08fb 9abd cd0b 03be
00000150: 3ede 58be dbe5 68ba 5786 77bc c929 46bd
00000160: baee c1bd 1fe6 02bd bc0c 663d 9afd a9bd
00000170: 995e 17be b3ef 34bd d106 3b3d d752 053e
00000180: 2e6a 32bd 8cf2 a23d e43f d4b8 e46f 66bd
00000190: 420f a23d 05cb babd 8fd8 a3bd 7b1b cdbd
000001a0: b66c 9e3d ae9b 2abe 4ae5 07be 25f7 a1bb
000001b0: 34ca 493e 6116 793d bdfe 05bd 5fe6 1d3d
000001c0: 2804 273e ce06 813d 5079 0e3d d94c cb3d
000001d0: 3091 993d ac46 ca3c 424c b6bd 6212 d9bd
000001e0: 87d2 663e 4537 8c3d 40c2 17be f58f 0e39
000001f0: 4ef2 4bbd b805 da3d 3e01 d1bd e96c 20be
00000200: 948d 903d 6721 393e 1e6b bfbd adc4 4abd
00000210: e350 2b3d 9e2a 603e 33cc 083e e718 c6bc
00000220: 5f79 ee3d a0ed 773e e96d d53c f367 cdbd
00000230: 486a 163d a570 2a3e 76a8 b73d 8f19 36bd
00000240: d461 a1bd 2a19 9abc 03fe 67bd cd04 06be
00000250: 4555 a9bd eff5 48be 48da 163e 9c8e 8c3c
00000260: 3dfa 0c3d ea7a 0bbe da47 70bd 69e9 03bd
00000270: d322 0cbe 3039 9bbd ad4c 9d3d be7f 67bd
00000280: 352a dbbd c542 e7bd 4caa d8bd ce05 acbb
00000290: 23af 09be 1177 b8bb c7e3 d2bc e3c4 74be
000002a0: f534 00be 33b8 11be 5d85 9b3d c496 9c3d
000002b0: 2e9a aa3d a2dc e43c 2c8a fcbd 7c15 463d
000002c0: a557 3bbd 881a 7bbd c341 0bbd aa5d fe3c
000002d0: cf99 9d3d d10d 303e 87fe 373d ca3c ca3c
000002e0: bcee 783d 85a0 b43c 7123 4e3e 0380 e93c
000002f0: cb7e 993d f5e5 703d 274f 05be 5b4f f6bd
00000300: cd3e a4bd 39b0 a5bc 89d3 983d 211d ca3b
00000310: f2d8 bfbc ca5f 07be fa8a 33be 7723 00be
00000320: 0ce8 03be a849 c0bd 3e27 a6bd cf36 4a3d
00000330: 24b0 6abd 0c15 34bd c8a7 adbd 83d5 52bd
00000340: 5646 513c 8a54 50bc d3e3 823c 8aaa 843d
00000350: 9c1a d43d a06f 7f3d 21e7 aa3c de6a 153d
00000360: 3c2f f63c 220c f6bc 4415 5b3d 5b39 ab3c
00000370: e4b5 ccbc 3ce8 efbd 3315 47bb 289c d23c
00000380: 0dc9 93bb fe99 97bc 81d1 503c 3b06 c5bd
00000390: 849d f5bd b0d5 b4bb 2d10 403e 6616 323e
000003a0: 8da9 153e 6701 e6bb f153 50bd a0eb 49bd
000003b0: 1121 de3d 3044 283e af5a 063d 286d 78bd
000003c0: 34af 8abd 12d8 aebd d5fb ccbd 9b82 f4bd
000003d0: 3ec5 53bd 1eb1 6e3e 6d6a f23d e348 a9bc
000003e0: 6b46 2cbe 87c2 7dbd fd15 c93d 540d e03d
000003f0: cd60 c23d 152a 033c bd21 803d b9cc 003e

conv2.bias f4 [16]
-0.0026047498 0.13899525 -0.1244764 0.098779485 0.045973033 0.07624553 0.03418152 0.025493799
0.094252296 -0.09371805 0.05712719 -0.045514893 0.16963938 0.035289403 0.056644436 -0.053003527
00000000: 73b4 2abb c554 0e3e 7ced febd e64c ca3d
00000010: 384e 3c3d 9e26 9c3d ec01 0c3d 5fd8 d03c
00000020: 5907 c13d 40ef bfbd 33fe 693d d36d 3abd
00000030: f2b5 2d3e 9f8b 103d ff03 683d 3a1a 59bd

fc1.weight f4 [120, 400]
0.02120759 -0.0010065888 -0.044343304 0.014719915 0.055974238 -0.013716355 0.0111766355 -0.02624385
0.092493 0.10486684 0.014829761 -0.07984079 0.047411524 0.025693914 0.04530335 0.11982186
0.17436634 -0.034328777 -0.0820074 -0.046686098 -0.036061794 -0.12395007 -0.020509982 -0.012632159
0.046291415 0.03491983 -0.05555352 -0.0006767016 0.05408812 0.16406867 0.038612563 -0.00859834
0.05040507 0.030168466 0.1656262 0.024622489 -0.023343854 -0.07982161 0.07749437 0.10856902
0.05301655 -0.06714604 -0.07310983 0.05796867 0.12941776 0.032136496 -0.107484095 -0.05924728
0.026989846 0.062361535 -0.002108324 0.020637901 0.041082032 0.04340962 0.031510025 0.0087956535
-0.028374203 -0.05542417 0.029706895 0.026292035 0.07541676 0.011125618 0.050312903 0.016056601
-0.048373442 0.079453036 0.057927296 0.102469616 -0.0048174704 -0.05237678 0.04660412 -0.02288179
-0.018641321 -0.024678085 0.0041246675 0.096262686 0.0069113052 -0.0018008751 -0.04211938 0.008646636
0.08330499 0.0054442966 -0.05562548 -0.12587945 -0.08240568 0.019368526 0.028949026 -0.014214635
-0.01626756 -0.028822055 0.07453801 0.028259816 0.019023655 0.11068096 -0.0009400175 0.08476477
0.13877796 0.009273211 -0.052364174 -0.10052159 0.03609929 0.023815224 0.038055502 -0.013059106
0.18083254 -0.045045 -0.082167536 -0.058523156 -0.040112242 0.041138567 0.10777606 0.05217183
-0.03861539 -0.08318266 0.23731972 0.09821947 -0.039592806 -0.096267685 0.013587576 0.20615634
-0.008871111 -0.063273 -0.05334718 0.07625472 0.12004724 0.0043398854 -0.0011753 0.04703804
0.13159981 0.06025614 -0.14716744 0.016791744 0.12214942 0.014343618 -0.0807756 0.05357306
0.09402984 0.0014485299 -0.021632308 -0.048666876 0.09161274 -0.057042155 -0.14952324 -0.055967283
-0.078075044 -0.07918149 0.016469566 0.06508279 -0.1533691 -0.04077088 -0.10252141 0.080021255
0.11368534 0.0027978611 0.024180466 -0.069009535 -0.055843264 0.019114396 -0.020253163 0.07800393
-0.043620314 -0.15061769 -0.12421781 0.1872327 0.053710725 -0.15230773 -0.11374032 -0.03593763
0.043012094 0.06480318 -0.078352496 0.042974122 0.12592772 0.01341426 0.05416186 0.04800585
0.050442684 -0.014047732 -0.08752995 -0.032496627 0.06932825 0.05711723 0.0139550725 -0.08124416
-0.098916866 0.04705879 0.023824003 0.007888912 -0.059345916 -0.07145442 0.065196045 0.044902936
0.061948825 0.0387022 0.100410454 0.036447965 0.10415353 0.017183393 -0.09667698 -0.02078702
0.008140205 -0.07337918 -0.05545756 -0.10014055 -0.015011833 0.07371414 0.066853054 0.13122024
-0.006862069 -0.08151698 0.11691245 0.15672117 0.09584632 0.08593488 0.039178174 0.006393775
-0.05270787 0.051517226 0.02370523 0.13567273 -0.18651107 -0.16808212 -0.061350048 0.02691668
-0.03237341 0.101121314 0.06279019 0.02223343 -0.036834944 -0.088736385 0.1213571 0.11449866
0.057235252 -0.0102459 -0.075289585 -0.00036299348 0.034473184 0.13806851 0.09220013 -0.0013274343
-0.07874145 -0.07718415 -0.0056036315 0.13306189 0.11326808 -0.14113322 -0.15030651 -0.0552105
0.054656956 -0.0047243545 -0.054166622 -0.11598785 0.012231293 0.011859001 0.09212955 -0.012225693
00000000: 8abb ad3c 84ef 83ba 53a1 35bd cc2b 713c
00000010: 3e45 653d 90ba 60bc 351e 373c 58fd d6bc
00000020: f86c bd3d 6dc4 d63d 87f8 723c 9183 a3bd
00000030: 9632 423d 0b7c d23c 0190 393d 2a65 f53d
00000040: 178d 323e 559c 0cbd 7ff3 a7bd ec39 3fbd
00000050: 88b5 13bd 89d9 fdbd 8d04 a8bc 1df7 4ebc
00000060: 119c 3d3d 1808 0f3d 168c 63bd ad64 31ba
00000070: 818b 5d3d 9e01 283e 3528 1e3d 0de0 0cbc
00000080: 8c75 4e3d dc23 f73c ea99 293e 1ab5 c93c
00000090: 9c3b bfbc 8379 a3bd 5eb5 9e3d 6f59 de3d
000000a0: e227 593d dd83 89bd 9bba 95bd 8e70 6d3d
000000b0: 1786 043e 8fa1 033d 9f20 dcbd 47ad 72bd
000000c0: cf19 dd3c cf6e 7f3d cf2b 0abb d110 a93c
000000d0: a245 283d 49ce 313d a810 013d a51b 103c
000000e0: 0471 e8bc 7404 63bd e05b f33c 6562 d73c
000000f0: 1a74 9a3d 3948 363c e714 4e3d 2289 833c
00000100: 3b23 46bd 46b8 a23d 2c45 6d3d 97db d13d
00000110: dfdb 9dbb 0989 56bd f6e3 3e3d 9772 bbbc
00000120: afb5 98bc b229 cabc 3828 873b 5f25 c53d
00000130: 3b78 e23b 570b ecba 5f85 2cbd 9faa 0d3c
00000140: ce9b aa3d 1266 b23b 8bd7 63bd 8be6 00be
00000150: 4fc4 a8bd beaa 9e3c 8226 ed3c 80e4 68bc
00000160: 8c43 85bc 3b1c ecbc 62a7 983d 2181 e73c
00000170: 7fd7 9b3c b3ac e23d 826b 76ba 2799 ad3d
00000180: cf1b 0e3e aaee 173c d17b 56bd 43de cdbd
00000190: d9dc 133d 2518 c33c 16e0 1b3d dcf5 55bc
000001a0: 2a2c 393e 1b81 38bd 7447 a8bd fab5 6fbd
000001b0: bc4c 24bd ea80 283d b2b9 dc3d 21b2 553d
000001c0: 2c2b 1ebd ac5b aabd f103 733e 4a27 c93d
000001d0: 112c 22bd fe27 c5bd 6d9e 5e3c a61a 533e
000001e0: 2358 11bc 4695 81bd 9382 5abd 6f2b 9c3d
000001f0: 54db f53d 9935 8e3b 860c 9aba f6aa 403d
00000200: 1ac2 063e 24cf 763d 10b3 16be d78e 893c
00000210: 7a29 fa3d 7f01 6b3c ae6d a5bd 6d6f 5b3d
00000220: b792 c03d 99dc bd3a 3d36 b1bc eb56 47bd
00000230: 769f bb3d 09a5 69bd 9f1c 19be f33d 65bd
00000240: cfe5 9fbd e829 a2bd 2feb 863c 204a 853d
00000250: ca0c 1dbe 5eff 26bd bff6 d1bd 2fe2 a33d
00000260: dcd3 e83d 525c 373b 1d16 c63c df54 8dbd
00000270: e8bb 64bd cb95 9c3c f6e9 a5bc 86c0 9f3d
00000280: 37ab 32bd 863b 1abe e865 febd eeb9 3f3e
00000290: c7ff 5b3d 8ff6 1bbe aff0 e8bd 5633 13bd
000002a0: 732d 303d 88b7 843d 4677 a0bd a205 303d
000002b0: 32f3 003e 7cc7 5b3c d4d8 5d3d c8a1 443d
000002c0: fd9c 4e3d 7528 66bc e742 b3bd 2f1b 05bd
000002d0: f8fb 8d3d c2f3 693d d1a3 643c 5763 a6bd
000002e0: ed94 cabd b8c0 403d 8e2a c33c 7f40 013c
000002f0: b414 73bd b256 92bd 8185 853d 24ec 373d
00000300: 0dbe 7d3d 3386 1e3d ffa3 cd3d 764a 153d
00000310: 724e d53d 30c4 8c3c 95fe c5bd 8a49 aabc
00000320: 7f5e 053c d347 96bd 7727 63bd 7d16 cdbd
00000330: 31f4 75bc 70f7 963d 41ea 883d 995e 063e
00000340: 35db e0bb 60f2 a6bd cb6f ef3d 847b 203e
00000350: 134b c43d a0fe af3d 4b79 203d df82 d13b
00000360: 35e4 57bd ba03 533d 7831 c23c cbed 0a3e
00000370: c2fc 3ebe b81d 2cbe 304a 7bbd 5f80 dc3c
00000380: fb99 04bd b118 cf3d 2598 803d e222 b63c
00000390: 3de0 16bd 6cbb b5bd 128a f83d 467e ea3d
000003a0: 836f 6a3d 6bde 27bc 6d31 9abd 2950 beb9
000003b0: c133 0d3d d561 0d3e 6cd3 bc3d 4efd adba
000003c0: 3343 a1bd b912 9ebd ab9e b7bb 6041 083e
000003d0: 18f9 e73d 3a85 10be f3e9 19be 6824 62bd
000003e0: f9df 5f3d c2ce 9abb d2dd 5dbd 0a8b edbd
000003f0: c365 483c 414c 423c 6bae bc3d 464e 48bc

fc1.bias f4 [120]
0.051420968 0.05649694 -0.051897515 0.038816012 -0.031484105 -0.020218091 -0.044707 -0.06706002
0.0746754 0.05654835 -0.05103281 0.036615144 0.03866551 -0.02604214 0.023142671 0.0068323035
-0.0010700565 0.03759075 0.026388261 0.00915706 -0.0012142765 -0.03838693 0.07488541 0.0071457033
0.017910836 0.047984406 0.0624708 -0.0077224714 0.04016522 0.060786422 0.001961351 0.032616638
-0.020746274 0.030503156 -0.011063205 0.021007186 -0.053186927 -0.02354218 -0.0068732174 0.048620887
0.08120456 0.011034021 -0.076958455 0.0059673004 0.030852156 -0.046609197 -0.031881694 0.004752936
-0.03180145 -0.009697176 -0.0032581678 -0.05493965 0.056170747 0.01306459 0.0049906387 0.052245464
-0.033181388 -0.041345447 0.012885215 0.032318372 -0.008382649 -0.077332 -0.04963696 -0.004623888
0.025552107 -0.042265687 0.021970889 0.02543418 -0.08492706 -0.04201864 0.041058887 0.038555324
0.03326744 -0.003128945 0.015068312 0.027972113 -0.04948515 -0.008779699 0.01295192 -0.0112682525
0.041102365 0.022747647 -0.047707804 0.042981848 0.009949962 0.011954158 0.06553565 -0.017915538
0.07894358 0.07205717 0.01782727 0.05767505 -0.063341826 0.07195721 0.004064599 0.03596422
-0.051030464 -0.051023267 -0.029299868 -0.050086156 0.01469322 -0.027103674 -0.090153605 -0.048365813
-0.04686783 0.025908014 0.009713001 0.061598066 0.010704541 -0.013983254 0.08115063 0.04070599
0.0065608653 0.02056071 0.027910424 0.029444162 0.041580215 0.015422504 0.07354436 -0.049907215
00000000: cb9e 523d 5669 673d 7d92 54bd 8afd 1e3d
00000010: 7af5 00bd 69a0 a5bc b01e 37bd c456 89bd
00000020: 6bef 983d 3e9f 673d c807 51bd c3f9 153d
00000030: ba5f 1e3d 5356 d5bc b395 bd3c 84e1 df3b
00000040: 2341 8cba c2f8 193d 322c d83c 7e07 163c
00000050: 5c28 9fba 9d3b 1dbd 865d 993d 8126 ea3b
00000060: bfb9 923c 4c8b 443d 62e1 7f3d c90c fdbb
00000070: 4984 243d 2ffb 783d 028a 003b 0699 053d
00000080: 17f4 a9bc c1e1 f93c 7242 35bc 4317 ac3c
00000090: 89da 59bd 88db c0bc ba38 e1bb b226 473d
000000a0: 944e a63d 0ac8 343c 659c 9dbd 5889 c33b
000000b0: a9bd fc3c 49e9 3ebd 6196 02bd 84be 9b3b
000000c0: 3d42 02bd e7e0 1ebc fc86 55bb 6608 61bd
000000d0: 4c13 663d dd0c 563c 8388 a33b 57ff 553d
000000e0: 35e9 07bd d859 29bd 821c 533c 4560 043d
000000f0: 6157 09bc 3d60 9ebd 2050 4bbd fc83 97bb
00000100: a752 d13c c91e 2dbd 4bfc b33c 575b d03c
00000110: 3dee adbd bd1b 2cbd 5d2d 283d 30ec 1d3d
00000120: 7043 083d fc0e 4dbb 15e1 763c c625 e53c
00000130: f1b0 4abd bad8 0fbc 4a34 543c 7a9e 38bc
00000140: f45a 283d 4659 ba3c 4269 43bd bc0d 303d
00000150: 2a05 233c 5fdb 433c 8e37 863d 9bc3 92bc
00000160: 2cad a13d b692 933d 7f0a 923c ac3c 6c3d
00000170: 5cb9 81bd 4d5e 933d 5430 853b 384f 133d
00000180: 5205 51bd c6fd 50bd 4706 f0bc 2427 4dbd
00000190: d5bb 703c 8608 debc 74a2 b8bd 3b1b 46bd
000001a0: 7bf8 3fbd 0b3d d43c 4723 1f3c 414e 7c3d
000001b0: 1962 2f3c 051a 65bc 4d32 a63d 53bb 263d
000001c0: 87fc d63b ef6e a83c 67a4 e43c e234 f13c
000001d0: 0450 2a3d acae 7c3c 6d9e 963d 826b 4cbd

fc2.weight f4 [84, 120]
-0.14565377 -0.03891994 -0.0083789565 -0.07146726 0.057093784 -0.111232504 0.050481994 -0.016664758
0.023576068 0.11480211 0.021199444 -0.016131075 -0.05478225 0.04783992 -0.029304126 -0.016709303
0.13152248 -0.019019593 0.084235914 -0.091541365 -0.016375046 0.05845455 -0.06339897 0.0126393
0.0073679104 -0.038111925 -0.1170418 -0.0494955 0.063180715 -0.044150885 -0.09522599 -0.039221875
0.022397002 -0.0047713234 -0.0314425 0.01598056 0.015281069 0.053928897 0.012800745 -0.0036987565
0.02968275 0.15406908 -0.07456103 -0.05934923 0.18802999 0.009822217 -0.0702327 -0.11699341
-0.08249659 0.16755226 0.082610026 -0.008976498 0.11894016 -0.009916984 0.10261664 0.0982242
-0.17624402 0.058668807 -0.11235984 0.093345314 0.02632869 0.046200935 0.030009087 -0.011045499
-0.08251548 0.022551944 0.06386914 0.041108996 -0.122267775 -0.010096752 -0.13235205 -0.013630996
0.05104621 -0.07016516 0.040287524 0.08357874 0.15419216 -0.08975163 -0.04326464 -0.016589832
-0.0058056996 -0.018219493 -0.071095586 0.012579777 0.074554734 0.119647376 0.06997887 0.09444503
0.081474274 0.08222991 0.05348014 -0.040163472 0.13329674 0.12913045 0.007816695 0.04006434
0.052107114 0.10529756 0.11355295 0.07582877 0.05722769 0.1269569 0.045864202 0.052675012
-0.0223284 0.04707297 -0.09975413 0.0087347375 0.15684022 0.028147109 0.03732826 0.13131563
0.05021193 0.083760075 0.017835012 0.021586146 0.122588806 -0.11247989 0.01425085 -0.03550899
-0.0014515106 0.0938907 -0.036597606 0.09746887 -0.006916427 -0.07563071 0.061261546 0.024015242
0.01801947 0.1119822 0.078949735 0.029351477 -0.01488129 -0.15028036 -0.08364571 -0.050675083
-0.038267553 0.005599646 -0.0650475 -0.2032416 0.008635999 -0.049002804 -0.026398147 -0.021137897
-0.06327174 0.08306457 -0.039857075 -0.03392745 -0.038985793 0.03717814 -0.025441 -0.088923305
0.05098109 0.12409461 -0.05039876 0.060338188 -0.019017702 0.03596247 0.052613843 0.053607393
0.055221125 0.10758621 0.009665017 0.09369485 0.20464408 -0.02952413 -0.07092471 0.12169831
-0.012250814 -0.15212184 0.05600914 -0.07414255 0.11369099 -0.09491374 0.028027536 0.059423007
-0.18181461 0.087387644 -0.021892514 -0.058081243 0.017581373 -0.06011247 -0.04279075 -0.091649696
-0.062197138 -0.03815121 -0.027722891 -0.09957694 -0.09953228 -0.045878943 0.06627486 0.060723085
0.06885954 0.07737451 0.08925787 -0.11613108 0.19406202 0.0001653858 0.05785782 0.03591884
-0.046503376 -0.051137015 -0.014387042 0.076505914 -0.05654724 -0.044808038 0.011081648 -0.1272823
0.06833853 -0.020797545 0.10861752 0.07942031 0.04938299 0.060717735 0.11370289 -0.021465627
-0.06170077 0.11121945 -0.026957275 0.035689436 -0.10859402 -0.1266021 0.018355815 -0.044449925
-0.100116804 0.1031019 0.12041701 0.017984148 -0.07144253 -0.009933717 0.04118624 0.000472691
-0.07828708 -0.1793469 -0.050357718 0.07445041 -0.114438474 0.10828099 0.034296848 -0.028656142
0.20344771 -0.043624714 -0.081033714 -0.008723281 -0.0063848295 0.0063435445 -0.0022482085 -0.10548233
0.13194737 0.003989156 0.03323305 0.13158703 -0.012116936 0.16781496 -0.046502445 0.10076173
00000000: 4326 15be 846a 1fbd e447 09bc 6d5d 92bd
00000010: 2cdb 693d decd e3bd 35c6 4e3d 8884 88bc
00000020: 9922 c13c 5e1d eb3d 75aa ad3c 5125 84bc
00000030: 5a63 60bd cbf3 433d 350f f0bc f3e1 88bc
00000040: d4ad 063e face 9bbc e183 ac3d 0a7a bbbd
00000050: f624 86bc 0a6e 6f3d 52d7 81bd 1115 4f3c
00000060: 836e f13b 401b 1cbd 9cb3 efbd cbbb 4abd
00000070: e464 813d 8fd7 34bd d805 c3bd 1ea7 20bd
00000080: eb79 b73c c358 9cbb dac9 00bd aae9 823c
00000090: 735d 7a3c 8ce4 5c3d 37ba 513c d666 72bb
000000a0: 3d29 f33c 49c4 1d3e 74b3 98bd 2e18 73bd
000000b0: ef8a 403e 5ded 203c 29d6 8fbd 3e9a efbd
000000c0: f9f3 a8bd d292 2b3e 722f a93d 2912 13bc
000000d0: e696 f33d d87a 22bc ac28 d23d c529 c93d
000000e0: 5079 34be b44e 703d ea1c e6bd d42b bf3d
000000f0: 44af d73c 313d 3d3d 9ed5 f53c 2ef8 34bc
00000100: e0fd a8bd dbbe b83c d3cd 823d e861 283d
00000110: 8767 fabd d96c 25bc 4c87 07be 8b54 5fbc
00000120: d515 513d c0b2 8fbd 8804 253d 552b ab3d
00000130: 8de4 1d3e b4cf b7bd 4336 31bd 66e7 87bc
00000140: bd3d bebb 0c41 95bc 909a 91bd 691b 4e3c
00000150: 27b0 983d af09 f53d 1551 8f3d 656c c13d
00000160: fcdb a63d 2868 a83d fe0d 5b3d 7482 24bd
00000170: f17e 083e c63a 043e 9811 003c 811a 243d
00000180: 456e 553d 3fa6 d73d 738e e83d 1d4c 9b3d
00000190: 9567 6a3d fd00 023e 1adc 3b3d c1c1 573d
000001a0: 0cea b6bc 96cf 403d e54b ccbd 251c 0f3c
000001b0: b99a 203e c494 e63c 84e5 183d 9b77 063e
000001c0: 06ab 4d3d 678a ab3d bb1a 923c 6ed5 b03c
000001d0: d70f fb3d db5b e6bd 667c 693c e071 11bd
000001e0: 9d40 beba c449 c03d 5fe7 15bd c29d c73d
000001f0: 32a3 e2bb 46e4 9abd 63ed 7a3d 9dbb c43c
00000200: 919d 933c ec56 e53d 66b0 a13d 8272 f03c
00000210: a7d0 73bc 18e3 19be 714e abbd ad90 4fbd
00000220: 70be 1cbd 3c7d b73b a037 85bd 911e 50be
00000230: 017e 0d3c 2ab7 48bd ed40 d8bc 6229 adbc
00000240: 9d94 81bd c21d aa3d 2c41 23bd 83f7 0abd
00000250: 91af 1fbd 1b48 183d a569 d0bc 6c1d b6bd
00000260: 8cd1 503d 5125 fe3d ee6e 4ebd 2d25 773d
00000270: 03cb 9bbc 624d 133d 9d81 573d 6d93 5b3d
00000280: 8c2f 623d 2956 dc3d 055a 1e3c 16e3 bf3d
00000290: 388e 513e 97dc f1bc f940 91bd f73c f93d
000002a0: a3b7 48bc d4c5 1bbe d769 653d 0dd8 97bd
000002b0: d2d6 e83d 2362 c2bd 019a e53c 8a65 733d
000002c0: 9c2d 3abe 4bf8 b23d ee57 b3bc 99e6 6dbd
000002d0: d006 903c 7e38 76bd 5a45 2fbd d6b2 bbbd
000002e0: 6dc2 7ebd 7144 1cbd 1e1b e3bc ffee cbbd
000002f0: 94d7 cbbd 8feb 3bbd 1dbb 873d c5b8 783d
00000300: 3b06 8d3d 8776 9e3d d5cc b63d 22d6 edbd
00000310: 32b8 463e 6a6b 2d39 52fc 6c3d a21f 133d
00000320: 537a 3ebd 0c75 51bd a1b7 6bbc 22af 9c3d
00000330: 149e 67bd a288 37bd cd8f 353c 4b56 02be
00000340: 12f5 8b3d 9d5f aabc dd72 de3d 1ea7 a23d
00000350: d145 4a3d 29b3 783d 10dd e83d afd8 afbc
00000360: f2b9 7cbd 06c7 e33d 81d5 dcbc 162f 123d
00000370: 8b66 debd fba3 01be ef5e 963c 2011 36bd
00000380: 0a0a cdbd 1727 d33d 319d f63d 7e53 933c
00000390: 7650 92bd 07c1 22bc e7b2 283d 83d3 f739
000003a0: fa54 a0bd b7a6 37be e543 4ebd 7579 983d
000003b0: b85e eabd 6cc2 dd3d da7a 0c3d 49c0 eabc
000003c0: 9954 503e d4af 32bd 01f5 a5bd 18ec 0ebc
000003d0: d537 d1bb 82dd cf3b ae56 13bb 1f07 d8bd
000003e0: 361d 073e 77b7 823b 611f 083d c0be 063e
000003f0: 1d86 46bc afd7 2b3e 5979 3ebd 2a5c ce3d

fc2.bias f4 [84]
0.008959061 -0.05240491 0.09262688 0.037803613 0.12755577 -0.030453447 0.05835531 -0.047582995
0.057929788 0.034836195 0.07844515 -0.028124047 -0.0403329 0.08601482 0.09075724 0.025609305
0.09536951 0.094108164 0.04285149 -0.102619894 0.06524471 0.07344946 -0.010257549 -0.04077037
-0.09115434 0.01936344 0.026516782 0.092250384 -0.060534276 -0.12003385 -0.045320198 0.09610689
-0.047008164 -0.06458831 -0.11929892 -0.03976701 0.040502433 -0.021912772 -0.037773106 0.025668612
-0.07984709 -0.022215325 0.09213665 0.031315368 -0.058475837 -0.10475972 -0.070007615 0.005071398
0.049359947 -0.07750231 -0.102906026 -0.028918423 -0.03423617 0.06672123 0.050642636 0.0677009
0.08373845 0.052411374 -0.10548063 0.13470761 0.05368666 0.13970599 0.0454526 0.10976953
0.07516388 0.105954684 0.028508762 -0.051205438 0.039724104 -0.02171746 0.1350594 -0.07920729
0.022617355 -0.061616737 0.024650503 -0.033870194 -0.004165682 -0.101866186 -0.042975154 0.034872618
0.08901643 -0.046869036 0.02528711 0.020674625
00000000: 06c9 123c 88a6 56bd 29b3 bd3d f6d7 1a3d
00000010: fb9d 023e 8279 f9bc fa05 6f3d 63e6 42bd
00000020: c947 6d3d 66b0 0e3d daa7 a03d 6764 e6bc
00000030: 1c34 25bd 8a28 b03d efde b93d 9bca d13c
00000040: 1751 c33d c8bb c03d 0b85 2f3d 612a d2bd
00000050: 059f 853d ac6c 963d 470f 28bc d5fe 26bd
00000060: 20af babd 14a0 9e3c b939 d93c c5ed bc3d
00000070: caf2 77bd 4fd4 f5bd aca1 39bd b0d3 c43d
00000080: a28b 40bd e046 84bd fe52 f4bd bbe2 22bd
00000090: e1e5 253d 6a82 b3bc f9b7 1abd fb46 d23c
000000a0: df86 a3bd eafc b5bc 24b2 bc3d 8b44 003d
000000b0: 5c84 6fbd 448c d6bd 2760 8fbd f82d a63b
000000c0: a82d 4a3d 88b9 9ebd 65c0 d2bd 54e6 ecbc
000000d0: 3a3b 0cbd 24a5 883d a76e 4f3d c5a6 8a3d
000000e0: 117f ab3d 4fad 563d 3b06 d8bd cbf0 093e
000000f0: 8be6 5b3d 160f 0f3e 812c 3a3d d9ce e03d
00000100: 85ef 993d c5fe d83d 358b e93c cbbc 51bd
00000110: beb5 223d d1e8 b1bc 034d 0a3e 6f37 a2bd
00000120: 0848 b93c d561 7cbd daef c93c 79bb 0abd
00000130: 4680 88bb 389f d0bd b706 30bd 97d6 0e3d
00000140: 3f4e b63d bff9 3fbd ea26 cf3c d55d a93c

fc3.weight f4 [10, 84]
-0.07434039 0.11741976 0.06233513 0.13735421 -0.2139583 0.23148483 0.09035072 -0.054782547
0.0830693 0.014015889 0.080403656 -0.041380882 -0.100429915 -0.19260336 -0.14302614 0.13200015
-0.111338235 0.0783382 0.015837966 -0.11940105 0.053374663 -0.035932403 0.06703154 -0.0054259845
0.0800471 -0.05368948 0.035805523 0.028108977 -0.26866516 0.094973646 0.069699965 0.055729985
-0.06346637 -0.029417304 -0.008460121 0.14830266 0.13536125 -0.03143905 0.05193125 0.009349521
-0.049300015 0.066724114 -0.15493606 -0.07237794 0.06537813 0.026032427 0.13692085 0.10528918
-0.12265973 0.070187606 2.105216e-05 -0.2211591 -0.0816052 -0.075818 -0.096259855 0.098814234
-0.18435812 0.057382736 0.016624738 -0.11378292 0.06279748 0.106570736 -0.0024545558 0.0024151697
0.059634272 -0.19850577 -0.1033544 0.116816275 0.13557585 -0.08240322 -0.05504501 -0.056605544
-0.13483156 -0.0021224432 -0.08916984 0.096681826 -0.016032584 -0.043032948 -0.074055284 -0.1052465
-0.21396062 -0.1007115 -0.004618054 0.14963117 0.10315385 -0.059712596 -0.050288904 0.015070278
0.066598915 0.18173085 -0.15375556 0.013386092 0.021715859 0.07007656 0.133197 -0.05262241
-0.12776084 0.15066022 0.10909922 0.09029847 0.2406578 -0.119517624 -0.13178302 -0.08668667
-0.14421496 -0.20745395 0.061991856 -0.005678694 -0.09794827 -0.2158886 0.16224198 0.112732604
-0.28381127 -0.16413097 -0.0033270519 -0.07721155 -0.014344189 -0.08318927 -0.060859304 -0.09152739
-0.1203928 -0.061785135 -0.13530713 -0.052871972 -0.004247442 -0.0674059 0.04899322 -0.18570814
-0.12780099 -0.013130163 0.17605096 -0.14043573 0.17516229 0.11645859 0.019468129 0.021603452
-0.067099296 0.10178516 0.08853208 -0.07134775 0.040756598 -0.061356116 0.11491574 0.085671075
-0.10316101 0.13204181 0.034444656 -0.096577905 0.12174539 -0.038446326 -0.15770824 0.1436487
0.105729215 0.071422115 0.039873496 -0.0131585365 -0.13323346 0.026244579 0.119836465 -0.048740428
-0.058053747 -0.028803684 -0.13457084 -0.18388006 0.018076288 -0.07149671 -0.09501769 -0.00059063005
-0.0055476455 0.041048877 -0.16582529 -0.16624379 0.019520542 0.16883759 -0.076349154 0.011990411
0.13581356 0.12944113 0.0427727 0.00537154 -0.085271314 -0.084512375 0.018381795 0.09139087
-0.0013406927 0.09165294 -0.106924295 0.13170393 -0.14641365 -0.011103664 0.13921677 -0.060143605
0.05415065 0.022315912 0.15417665 0.07140251 -0.1381087 -0.034252983 -0.027973292 0.0195923
-0.0946488 -0.0795201 0.02819181 0.022818232 0.031963866 -0.045423545 0.057070818 0.1312825
0.10861127 0.100917764 0.14409003 -0.04792868 0.097741 0.061401088 -0.22249492 0.05340864
-0.19804637 -0.07190761 0.010153946 0.022864198 -0.008875023 0.09051716 0.031208655 -0.09324036
-0.07394349 -0.05968375 0.01895791 -0.1558983 0.054848146 -0.020846125 -0.07872688 -0.08689715
0.1499784 -0.19238976 -0.015249654 -0.024133295 0.08825481 -0.1771583 0.15591115 -0.07802296
-0.04402136 -0.0369188 -0.037774965 -0.04331353 0.0074551236 0.014707291 0.16873412 -0.0019602894
-0.057741288 -0.11652258 0.030033983 0.16187795 0.017593358 0.06448697 -0.15871589 -0.07220703
00000000: c63f 98bd c579 f03d 1f53 7f3d 95a6 0c3e
00000010: e217 5bbe 5c0a 6d3e cc09 b93d aa63 60bd
00000020: 3d20 aa3d e6a2 653c acaa a43d 007f 29bd
00000030: 33ae cdbd d139 45be 7275 12be 0c2b 073e
00000040: 4d05 e4bd c76f a03d 9fbe 813c 8a88 f4bd
00000050: 649f 5a3d db2d 13bd d547 893d 75cc b1bb
00000060: bcef a33d 80e9 5bbd d0a8 123d cc44 e63c
00000070: 7b8e 89be 8b81 c23d dbbe 8e3d 2045 643d
00000080: a8fa 81bd 8ffc f0bc 529c 0abc a7dc 173e
00000090: 249c 0a3e 3cc6 00bd ddb5 543d bc2e 193c
000000a0: d0ee 49bd a7a6 883d 8fa7 1ebe e33a 94bd
000000b0: f8e4 853d f541 d53c fb34 0c3e dba1 d73d
000000c0: 0635 fbbd 85be 8f3d 2b99 b037 8877 62be
000000d0: a120 a7bd 7846 9bbd e323 c5bd 1e5f ca3d
000000e0: 60c8 3cbe 290a 6b3d 9a30 883c 0507 e9bd
000000f0: f79b 803d c241 da3d 9ddc 20bb d347 1e3b
00000100: 1143 743d 1945 4bbe 79ab d3bd 5f3d ef3d
00000110: 65d4 0a3e 05c3 a8bd e076 61bd 37db 67bd
00000120: 4911 0abe b018 0bbb ad9e b6bd 1f01 c63d
00000130: c456 83bc 5143 30bd 4caa 97bd 7a8b d7bd
00000140: 7e18 5bbe d541 cebd 0b53 97bb ea38 193e
00000150: 5342 d33d 3295 74bd bdfb 4dbd 54e9 763c
00000160: 0365 883d a717 3a3e 1972 1dbe 5751 5b3c
00000170: 75e5 b13c 4d84 8f3d cb64 083e 998a 57bd
00000180: bdd3 02be ac46 1a3e 696f df3d 67ee b83d
00000190: 006f 763e a8c5 f4bd 21f2 06be c888 b1bd
000001a0: 16ad 13be cf6e 54be 2ceb 7d3d 5714 babb
000001b0: 1a99 c8bd e711 5dbe c322 263e 5ae0 e63d
000001c0: b64f 91be f311 28be ab0a 5abb 1721 9ebd
000001d0: e403 6bbc 235f aabd 9b47 79bd b672 bbbd
000001e0: 8090 f6bd 6912 7dbd f48d 0abe 4890 58bd
000001f0: 202e 8bbb 1b0c 8abd 1dad 483d 462a 3ebe
00000200: 43de 02be e51f 57bc b446 343e 62ce 0fbe
00000210: be5d 333e d781 ee3d a07b 9f3c b9f9 b03c
00000220: 5b6b 89bd bd74 d03d 4f50 b53d c51e 92bd
00000230: 64f0 263d 8d50 7bbd f258 eb3d 5174 af3d
00000240: 1446 d3bd f835 073e d715 0d3d a3ca c5bd
00000250: a655 f93d e579 1dbd 457e 21be a518 133e
00000260: 8f88 d83d c245 923d 6452 233d e796 57bc
00000270: 5a6e 08be dffe d63c d26c f53d 0ba4 47bd
00000280: c4c9 6dbd b4f5 ebbc f0cc 09be 0e4b 3cbe
00000290: b914 943c de6c 92bd a298 c2bd 83d4 1aba
000002a0: 06c9 b5bb de22 283d 1bce 29be d03b 2abe
000002b0: 8be9 9f3c c3e3 2c3e f25c 9cbd 6e73 443c
000002c0: b612 0b3e 378c 043e 6d32 2f3d be03 b03b
000002d0: baa2 aebd d314 adbd 6b95 963c 232b bb3d
000002e0: 2fba afba 89b4 bb3d 20fb dabd 65dd 063e
000002f0: 76ed 15be 24ec 35bc d78e 0e3e 2459 76bd
00000300: 12cd 5d3d dccf b63c 7ce0 1d3e 7b3b 923d
00000310: 5e6c 0dbe db4c 0cbd 3f28 e5bc 0880 a03c
00000320: 3bd7 c1bd 6fdb a2bd 83f2 e63c 4ded ba3c
00000330: 8bec 023d 0a0e 3abd 17c3 693d eb6e 063e
00000340: 966f de3d f9ad ce3d 568c 133e dd50 44bd
00000350: 6f2c c83d b57f 7b3d b5d5 63be 05c3 5a3d
00000360: abcc 4abe 4c44 93bd bc5c 263c b34d bb3c
00000370: 8b68 11bc 1061 b93d 4ba9 ff3c cdf4 bebd
00000380: af6f 97bd f376 74bd 9e4d 9b3c cea3 1fbe
00000390: 73a8 603d 7ec5 aabc 8f3b a1bd 22f7 b1bd
000003a0: f093 193e d201 45be afd9 79bc 30b3 c5bc
000003b0: f0be b43d fc68 35be 2ca7 1f3e 80ca 9fbd
000003c0: be4f 34bd 2b38 17bd ecb9 1abd 8769 31bd
000003d0: 1c4a f43b d9f6 703c a3c8 2c3e 3378 00bb
000003e0: 2182 6cbd 64a3 eebd d409 f63c 55c3 253e
000003f0: f21f 903c bf11 843d 6b86 22be 48e1 93bd

fc3.bias f4 [10]
-0.054792415 -0.09317844 0.109798335 -0.08695038 -0.043381743 0.07951763 -0.026545823 0.10895592
0.049543504 0.13788627
00000000: 036e 60bd 57d4 bebd f3dd e03d 0a13 b2bd
00000010: 0eb1 31bd 24da a23d a076 d9bc 4824 df3d
00000020: 21ee 4a3d 0f32 0d3e
