checkpoints/MNIST/bayesian/model_lenet_lrt_softplus.pt (torch, 499743 bytes, 20 tensors)

conv1.W_mu f4 [6, 1, 5, 5]
000000 3f 93 81 b9 60 b3 2e 37 a5 36 84 38 e2 b6 3d 38
       -0.00024714504 1.0412972e-05 6.304429e-05 4.5231434e-05
000010 64 f7 46 38 1a 13 3a 38 a9 05 4a 38 71 d2 6b bb
       4.743728e-05 4.4363645e-05 4.8165824e-05 -0.0035983587
000020 ef 9a 07 bb a7 6a 4c 38 9d 2d 1d 38 9b a0 e1 38
       -0.0020691713 4.8736718e-05 3.7474198e-05 0.00010758751
000030 70 31 3e 38 69 0f 23 38 f3 47 c7 37 94 ee 9e bb
       4.5345572e-05 3.887658e-05 2.3756153e-05 -0.004850218
000040 13 c1 24 38 ad df 66 b7 d6 0a 54 38 7a 8a 66 38
       3.928046e-05 -1.3761147e-05 5.055483e-05 5.496524e-05
000050 76 3a 1e 38 11 c7 da ba ef 5d c2 37 ed 0b 2b bb
       3.772458e-05 -0.0016691406 2.3170343e-05 -0.0026099638
000060 b2 f1 1a ba 83 3f 1a 38 cd f4 f9 37 57 76 8b 38
       -0.0005910649 3.677561e-05 2.9797107e-05 6.650079e-05
000070 76 d7 72 38 91 2f 74 38 f2 00 89 37 66 56 94 38
       5.789796e-05 5.8218433e-05 1.6332113e-05 7.073283e-05
000080 93 c4 2a 38 ab e7 f3 37 a9 ea 09 3c a4 51 39 38
       4.0714232e-05 2.9075736e-05 0.008417764 4.418347e-05
000090 48 ec ac 38 a5 fc 24 38 a6 c0 7d 38 cf fc 4d 38
       8.24561e-05 3.933594e-05 6.049932e-05 4.9111255e-05
0000a0 1f 26 ed 37 a5 8a f2 37 8f c7 49 38 e5 6c c4 37
       2.8270353e-05 2.891321e-05 4.8107988e-05 2.3415729e-05
0000b0 e5 52 0c 39 53 84 ee ba 8a a0 8f 37 ec 00 85 38
       0.00013382321 -0.0018197395 1.7121685e-05 6.342106e-05
0000c0 d9 97 8c 38 d9 54 97 38 51 36 c6 b8 a8 4c 52 38
       6.704004e-05 7.216045e-05 -9.451493e-05 5.0139293e-05
0000d0 c7 89 d5 37 c8 5d 21 3a 4c aa 81 38 0a f4 4e ba
       2.5455736e-05 0.0006155637 6.1829196e-05 -0.0007894641
0000e0 ea 9d 13 ba 66 48 4b 38 0b 2d ed 37 0e 59 91 37
       -0.0005631136 4.8466398e-05 2.8273576e-05 1.7326816e-05
0000f0 fc 14 14 38 8a d9 9c 38 c6 f8 9e b6 f4 21 4a ba
       3.5305493e-05 7.4791795e-05 -4.737728e-06 -0.0007710748
000100 2d 60 ef ba cc b4 1f 38 86 98 74 38 f0 be 51 38
       -0.0018262916 3.8076934e-05 5.8316182e-05 5.0007307e-05
000110 ea 44 39 38 6f 13 3e 38 91 a8 54 38 98 f1 35 38
       4.417162e-05 4.531763e-05 5.070173e-05 4.3378765e-05
000120 35 84 f9 37 28 d8 62 38 86 d6 43 38 9d 47 e9 38
       2.9744677e-05 5.408391e-05 4.6691413e-05 0.00011123645
000130 42 82 c6 37 13 cf 27 38 95 cb 64 38 80 3e 6a 38
       2.3664095e-05 4.0008756e-05 5.4549037e-05 5.5848155e-05
000140 34 49 49 38 59 c1 6a 38 5b 0e 85 38 66 59 5c 38
       4.799031e-05 5.5970017e-05 6.344608e-05 5.2535346e-05
000150 99 09 3d 3a 10 db 1f bb 33 0b 6a 38 e9 90 8a 38
       0.0007211208 -0.0024392046 5.5800378e-05 6.6073444e-05
000160 f2 9e bc b8 eb b4 ee 37 db 9e a7 37 2a 84 5d 38
       -8.9941444e-05 2.8456057e-05 1.9981924e-05 5.2813593e-05
000170 1e 5a 47 38 1e bb 70 b9 2b 75 49 38 70 7b 80 b8
       4.7529225e-05 -0.0002295789 4.8031256e-05 -6.126508e-05
000180 3e cd ce 38 19 d1 7b b8 b0 d3 d9 37 47 8a d4 b9
       9.861075e-05 -6.00378e-05 2.596699e-05 -0.00040538816
000190 4c fc 20 b9 75 5f 14 ba 83 6d 4c 38 82 68 0b 38
       -0.00015352777 -0.0005659976 4.873938e-05 3.3237513e-05
0001a0 64 9b 52 38 79 69 b3 37 e0 b5 75 3a 32 3a 25 38
       5.021262e-05 2.1387577e-05 0.000937311 3.9393264e-05
0001b0 34 ac 65 38 07 20 07 37 f2 f7 ad 3a 5f 8f 73 38
       5.475823e-05 8.054084e-06 0.0013272746 5.806924e-05
0001c0 cf c3 09 38 c2 4f 5a 38 b6 27 1d 38 46 0e 5c 38
       3.2845706e-05 5.204953e-05 3.74687e-05 5.246538e-05
0001d0 ca 9a 1b 3a 5e c3 1f b7 62 db 56 3a d3 e7 1a 39
       0.0005935846 -9.522626e-06 0.0008196143 0.00014772946
0001e0 c2 c3 88 38 40 f0 53 38 0b 76 b3 3a 6d 76 8c 38
       6.521448e-05 5.053007e-05 0.0013691796 6.697779e-05
0001f0 e8 1f b3 39 21 cd d4 37 25 40 50 38 1b 61 3e 38
       0.00034165313 2.536789e-05 4.9650804e-05 4.5389967e-05
000200 42 93 f9 b9 20 60 1c 38 1f 02 3e b8 9d 1b 04 38
       -0.00047602697 3.728282e-05 -4.5301505e-05 3.149697e-05
000210 66 46 ae 3a f1 9a 7a 38 33 66 08 b9 58 e4 09 b9
       0.0013296127 5.9748945e-05 -0.00013008043 -0.00013150403
000220 ff 87 bc 38 4e ca 60 37 ec 6b 61 38 c8 7c 8d b9
       8.98987e-05 1.3398543e-05 5.374469e-05 -0.00026986585
000230 93 2f 67 38 f2 40 aa 38 65 ba 15 38 b9 68 8a 38
       5.5119e-05 8.118329e-05 3.569796e-05 6.599859e-05
000240 da 0a c0 39 fe 72 95 37 3a 98 47 b7 1c 47 5c 37
       0.0003662918 1.7815732e-05 -1.1896767e-05 1.3129578e-05
000250 3b b2 7d 38 6e cd 04 38
       6.048589e-05 3.1662574e-05

conv1.W_rho f4 [6, 1, 5, 5]
000000 5f 47 6a c0 55 a3 65 c0 7f b7 63 c0 43 90 6e c0
       -3.6606061 -3.588094 -3.5580747 -3.727555
000010 70 13 6c c0 85 a1 6d c0 2b 2f 6c c0 2a 6c 6f c0
       -3.6886864 -3.7129834 -3.690379 -3.7409768
000020 25 73 71 c0 f0 0e 6d c0 32 89 7f c0 fa 2f 74 c0
       -3.7726529 -3.7040367 -3.9927487 -3.8154283
000030 b4 66 6f c0 a8 f6 74 c0 a2 f4 82 c0 d6 57 72 c0
       -3.7406435 -3.8275547 -4.0923624 -3.786611
000040 a3 75 73 c0 97 b6 7b c0 c0 fc 6b c0 11 3a 69 c0
       -3.804055 -3.9330194 -3.6873016 -3.644169
000050 49 65 72 c0 1c 04 74 c0 96 9e 7b c0 1a 16 6e c0
       -3.787432 -3.8127508 -3.9315543 -3.720099
000060 ca 78 6b c0 a1 50 73 c0 7e 28 80 c0 f2 ff 64 c0
       -3.6792474 -3.8017962 -4.004943 -3.5781217
000070 59 b1 68 c0 f0 22 68 c0 8a a5 75 c0 36 d4 5e c0
       -3.6358244 -3.6271324 -3.8382287 -3.4817023
000080 39 a2 74 c0 c2 20 81 c0 4a 7e 63 c0 a9 70 7c c0
       -3.8224013 -4.0352488 -3.554583 -3.9443762
000090 af 40 5e c0 d2 9c 78 c0 68 16 66 c0 a1 9a 6e c0
       -3.472698 -3.8845716 -3.5951176 -3.7281878
0000a0 d9 56 80 c0 52 71 80 c0 4c 2b 6f c0 c6 64 84 c0
       -4.0106015 -4.013833 -3.7370176 -4.1373014
0000b0 7a 1c 74 c0 e7 8f 76 c0 03 c7 88 c0 b0 03 66 c0
       -3.814238 -3.852533 -4.2742934 -3.593975
0000c0 ae 4d 67 c0 a2 4a 61 c0 eb cb 6e c0 b3 99 6d c0
       -3.6141162 -3.5201802 -3.7311962 -3.712506
0000d0 5e 27 69 c0 92 eb 6b c0 9b e2 6d c0 ff 9a 79 c0
       -3.6430278 -3.686253 -3.716956 -3.9000852
0000e0 7e f3 75 c0 0b a6 6e c0 38 7f 81 c0 9c 41 72 c0
       -3.8429866 -3.7288845 -4.0467796 -3.7852545
0000f0 f6 43 77 c0 25 d5 69 c0 0b 48 71 c0 ca 76 72 c0
       -3.863523 -3.6536343 -3.7700222 -3.7885003
000100 d2 01 70 c0 61 89 67 c0 e2 9d 68 c0 ce 17 6e c0
       -3.750111 -3.61776 -3.6346364 -3.720203
000110 7c 7e 73 c0 de b9 70 c0 86 0a 6c c0 5a c7 71 c0
       -3.804595 -3.7613444 -3.6881423 -3.7777925
000120 f9 73 80 c0 79 e6 6a c0 13 b8 67 c0 9a 81 65 c0
       -4.014157 -3.670317 -3.62061 -3.5860353
000130 8c 1a 82 c0 19 ef 71 c0 76 8f 6a c0 26 10 6e c0
       -4.0657406 -3.7802184 -3.6650062 -3.7197356
000140 56 83 6c c0 58 df 64 c0 b9 da 65 c0 85 9a 6c c0
       -3.695516 -3.5761318 -3.5914748 -3.6969311
000150 3e b5 61 c0 65 07 78 c0 a0 2b 6a c0 a9 54 6e c0
       -3.5266871 -3.8754513 -3.6589127 -3.7239172
000160 1f ba 70 c0 3e 22 81 c0 27 07 86 c0 42 20 70 c0
       -3.76136 -4.03543 -4.188373 -3.7519689
000170 e5 c5 6f c0 13 40 6f c0 a2 14 6e c0 75 6d 70 c0
       -3.7464535 -3.7382858 -3.7200093 -3.7566807
000180 29 a1 6d c0 75 0f 73 c0 7f 45 82 c0 93 08 80 c0
       -3.7129614 -3.7978184 -4.0709834 -4.0010467
000190 24 63 6f c0 3b 34 68 c0 d5 1d 6e c0 58 c8 79 c0
       -3.740426 -3.628188 -3.7205708 -3.902853
0001a0 dc 24 6d c0 48 c6 84 c0 bc 38 65 c0 38 55 75 c0
       -3.7053747 -4.1492043 -3.5815878 -3.8333263
0001b0 83 22 6b c0 66 78 6a c0 d5 20 68 c0 06 db 6a c0
       -3.6739814 -3.6635985 -3.627004 -3.6696181
0001c0 98 bd 70 c0 b3 8e 6c c0 f7 63 76 c0 ca 8f 70 c0
       -3.761572 -3.6962097 -3.8498514 -3.7587762
0001d0 36 d2 6a c0 0d 40 6d c0 f8 0c 71 c0 3e 7f 72 c0
       -3.6690803 -3.7070343 -3.7664165 -3.7890162
0001e0 6d b7 63 c0 d8 a0 6c c0 48 3f 74 c0 09 7d 63 c0
       -3.5580704 -3.6973171 -3.8163624 -3.5545065
0001f0 52 d3 6d c0 45 81 76 c0 82 1a 70 c0 e0 66 69 c0
       -3.716023 -3.85164 -3.751618 -3.646904
000200 31 41 6f c0 41 66 75 c0 08 7e 78 c0 fe 17 7d c0
       -3.738354 -3.834366 -3.8826923 -3.9545894
000210 f1 9e 68 c0 ae 11 67 c0 48 0d 78 c0 4a 0c 74 c0
       -3.634701 -3.610454 -3.8758106 -3.81325
000220 4d 6a 68 c0 d1 c9 7d c0 19 fe 6b c0 37 72 6e c0
       -3.631488 -3.965443 -3.687384 -3.7257211
000230 d4 24 68 c0 38 f1 5e c0 d0 2e 79 c0 3b 51 65 c0
       -3.6272478 -3.4834728 -3.8934822 -3.583083
000240 30 e5 67 c0 1f 30 85 c0 00 df 70 c0 9e ac 8c c0
       -3.6233635 -4.162124 -3.7636108 -4.3960714
000250 bd dc 66 c0 03 62 7d c0
       -3.6072228 -3.9591072

conv1.bias_mu f4 [6]
000000 81 ae 24 39 00 89 be 3a 49 1f 39 39 2c c0 e8 3a
       0.00015705267 0.0014536679 0.0001765463 0.0017757467
000010 be f8 34 39 d3 d3 23 38
       0.00017258801 3.9059505e-05

conv1.bias_rho f4 [6]
000000 6c 89 69 c0 54 da 69 c0 d7 b7 68 c0 32 43 71 c0
       -3.6490126 -3.6539507 -3.6362207 -3.7697263
000010 1c 3c 6a c0 a9 78 6e c0
       -3.6599188 -3.7261145

conv2.W_mu f4 [16, 6, 5, 5]
000000 3c 37 4b 39 82 21 57 3a 0e 87 39 39 14 11 97 39
       0.00019380165 0.0008206592 0.00017693287 0.0002881369
000010 bd 23 68 ba 54 3a 2c 39 e8 c9 7c 39 b5 60 60 39
       -0.0008855423 0.00016424927 0.00024107809 0.00021398331
000020 e8 83 8d 39 3c 70 6c 39 72 21 61 39 b2 9b 14 39
       0.00026991894 0.00022548524 0.00021470131 0.00014172381
000030 ff 77 d4 3a f2 9a 33 39 b5 d5 09 3b 01 af 38 39
       0.0016210078 0.00017128492 0.002103192 0.00017612801
000040 ea 2f b9 ba 6f 5b 04 b8 36 75 07 38 90 df 63 38
       -0.0014128659 -3.1556407e-05 3.229567e-05 5.4329226e-05
000050 bb 16 25 bb bb 3f 4b 39 0f b6 36 39 51 fc 02 bb
       -0.002519055 0.0001938333 0.00017424695 -0.0019986818
000060 21 42 9f ba 28 8f f5 38 59 dd 43 39 fa 7c 55 39
       -0.0012150445 0.00011709175 0.00018679108 0.0002035982
000070 69 1d 59 39 d9 af 8f 39 9f a6 6c 39 d5 35 c0 39
       0.00020705689 0.00027406102 0.00022568785 0.00036661202
000080 5a 54 82 39 93 8b a4 39 d3 29 48 39 a4 7e 72 39
       0.0002485838 0.00031384508 0.00019089067 0.00023126096
000090 1d 29 37 ba be 24 40 39 b1 6a 73 39 e3 54 40 39
       -0.00069870224 0.00018324234 0.00023214032 0.0001834217
0000a0 63 a1 63 39 84 e3 5c 39 d8 2f 69 39 3a 97 58 39
       0.00021708528 0.00021065591 0.00022238435 0.00020655702
0000b0 69 53 00 3a a2 1c 2d 39 b6 af 2e 39 d5 1e aa 39
       0.00048952416 0.00016509232 0.0001665939 0.00032447898
0000c0 d3 79 5f 39 91 8f ec 37 47 cd 83 39 71 59 91 39
       0.0002131232 2.8200246e-05 0.0002513921 0.00027723194
0000d0 44 6d 69 39 28 33 42 39 f4 23 53 39 2d d1 18 b9
       0.00022261316 0.00018520339 0.00020135922 -0.00014573774
0000e0 8e fc 3b 39 e6 35 90 39 cf ab 6d 3a 5c 06 ea 38
       0.00017927794 0.00027505978 0.0009066434 0.00011159174
0000f0 9b ca 67 3a 4d 5b 7f 39 6f 6d 72 39 f6 0c 01 39
       0.0008842141 0.00024352707 0.00023119686 0.00012307227
000100 0c 46 27 39 54 2d 4c 39 cf 04 59 39 61 d6 96 b9
       0.00015952456 0.00019471842 0.00020696524 -0.00028769954
000110 3b e4 25 39 69 3b 4b 3b 4c 8a ab 39 c8 6d 3d 39
       0.00015820649 0.0031010753 0.000327187 0.00018065341
000120 74 94 2a 39 e3 3f 13 39 81 c4 a1 39 5d 6f 96 39
       0.00016267766 0.00014042812 0.0003085472 0.00028693202
000130 bf ea 92 ba 9e 8c b0 b7 8d 0c 26 39 e4 3e 21 39
       -0.0011208876 -2.1046315e-05 0.00015835669 0.00015377585
000140 23 57 fa 38 95 50 27 39 56 13 48 39 a8 60 74 39
       0.000119371594 0.0001595638 0.0001908069 0.0002330566
000150 cb a5 13 bb f3 b5 ea 38 34 29 7c 39 70 ac aa b9
       -0.002252924 0.0001119188 0.00024047942 -0.00032553403
000160 48 7b 57 39 72 e1 91 39 cc 85 24 39 86 b3 e5 39
       0.00020549924 0.00027824525 0.00015690102 0.0004381204
000170 c4 d3 90 39 7c 30 21 3a dd 10 62 39 3e 7a 65 bb
       0.00027623598 0.00061488873 0.00021559322 -0.003501549
000180 ed 53 d8 38 a4 ae 25 39 e4 df 36 39 9a 1b 1f 39
       0.00010315315 0.00015800685 0.00017440278 0.00015173704
000190 fe 49 97 bb 1a f0 8a 39 59 a5 83 39 1d 68 87 39
       -0.004616975 0.000265003 0.0002510946 0.00025826777
0001a0 46 6e 48 39 cf e3 53 39 32 ec 82 39 b2 49 19 bb
       0.00019114566 0.00020207393 0.0002497151 -0.0023389873
0001b0 14 db 99 b9 41 26 78 39 9d 1b 51 39 03 05 d3 39
       -0.0002934566 0.00023665374 0.0001994208 0.0004024879
0001c0 76 1d 92 3a d7 3f ad 38 71 b2 98 39 bf f3 57 39
       0.0011147696 8.261174e-05 0.00029124648 0.000205948
0001d0 6d 14 5e 39 a2 98 f6 38 94 af b4 38 e3 fd 35 39
       0.00021179179 0.00011758624 8.615773e-05 0.00017356085
0001e0 db 3a c3 ba 75 de 83 b8 e1 3d 3a 39 36 85 79 39
       -0.001489486 -6.2880026e-05 0.00017761394 0.00023796115
0001f0 3b 11 50 39 d5 e3 21 39 8f 69 0f 3b 00 5b c6 38
       0.00019842845 0.0001543903 0.0021882986 9.458326e-05
000200 9c 2c 3b 39 56 16 19 39 92 fc 45 39 ad 76 7c 39
       0.00017850328 0.00014599538 0.00018881474 0.00024076803
000210 87 de 97 3a 89 34 21 ba 5f d2 95 39 12 f1 13 ba
       0.0011586704 -0.0006149491 0.00028576233 -0.0005643527
000220 7e e6 2c 39 78 41 39 39 43 33 4d 39 ca 29 3c 37
       0.00016489063 0.00017667364 0.0001956942 1.1215403e-05
000230 22 6d 35 39 45 f4 19 39 a4 79 8d 39 4e 30 5f 39
       0.0001730216 0.00014682215 0.00026984245 0.00021284932
000240 1c cf fb 38 92 02 f1 38 a8 08 ae 3a 70 55 0d ba
       0.0001200719 0.00011492254 0.0013277726 -0.00053914543
000250 d8 7a b1 39 73 3f 99 39 d7 11 5d 39 f2 fa ea 3a
       0.00033851597 0.00029229707 0.00021082848 0.0017927571
000260 c1 09 45 39 2f a4 7a 39 51 bd 3a 39 f6 49 9f ba
       0.00018791018 0.00023903021 0.00017808868 -0.0012152779
000270 b2 12 b3 ba de 78 99 bb 7c 93 6c 3a 30 d8 86 3a
       -0.0013662188 -0.004683598 0.00090246624 0.0010287818
000280 bf 2b 78 39 32 76 66 ba 89 1e 4f 39 2a 64 f2 38
       0.0002366742 -0.0008791416 0.00019752434 0.00011558116
000290 c2 98 12 b9 4e 52 8b 39 ba 70 70 39 bc 5b dd ba
       -0.00013980552 0.00026573468 0.00022930178 -0.0016888301
0002a0 59 5e b8 39 25 0d 38 39 99 ea 4e 39 88 ba e5 b9
       0.0003516551 0.00017552504 0.00019733085 -0.0004381726
0002b0 bb 82 d5 ba 67 be 9d 3a eb 7f 00 bb 6e d9 a0 39
       -0.0016289571 0.0012034894 -0.0019607495 0.00030679576
0002c0 a7 c2 55 39 d3 d5 0f 39 0f be 4d 39 20 12 43 39
       0.00020385777 0.00013717198 0.00019621126 0.00018603401
0002d0 3d 70 38 39 7d 9d 36 39 a0 f3 56 b9 86 b4 39 39
       0.0001758942 0.00017415542 -0.00020499388 0.00017710225
0002e0 99 23 3f 39 5c 29 f6 b9 6d a3 3f 39 44 8a 12 39
       0.0001822844 -0.00046951592 0.0001827606 0.00013975153
0002f0 f9 bf 5e 39 ae 0f 9a 39 50 dd 69 39 87 ba 1f 39
       0.00021243085 0.0002938485 0.00022303057 0.00015232908
000300 3c ad cc 39 3d 7d 00 39 32 34 f8 38 6b f6 8c 39
       0.00039038982 0.00012253686 0.00011835284 0.00026886477
000310 9f f8 7e 39 af d8 08 39 2e 1a 66 39 79 79 02 39
       0.00024315946 0.00013050692 0.00021944262 0.00012443018
000320 b7 b3 40 39 15 d2 75 39 74 73 53 3a 24 08 3c 3b
       0.00018377496 0.00023443282 0.0008066215 0.0028691376
000330 f4 5a ec 38 2e 04 3f 39 ce 79 62 39 64 75 47 39
       0.00011270298 0.00018216736 0.00021598415 0.0001902185
000340 54 fc e2 38 46 8a af 39 f9 3a 86 39 66 86 70 b9
       0.000108235196 0.00033481623 0.0002560241 -0.00022938251
000350 87 a7 12 39 45 a6 1b 39 77 02 43 39 51 d4 6b 39
       0.00013986054 0.00014843892 0.00018597567 0.0002249044
000360 bc 5f eb 3a f9 0c 9d 39 20 09 54 39 b3 b0 45 3b
       0.0017957608 0.0002995504 0.00020221295 0.0030165135
000370 82 8d 7f 39 43 d1 26 39 76 e3 8a 39 23 9a 5d 39
       0.00024371411 0.0001590895 0.00026490883 0.00021133623
000380 7e 09 66 39 01 14 28 3b d0 5c 46 35 ba ee f3 38
       0.00021938045 0.002564669 7.389581e-07 0.00011631609
000390 d3 06 86 39 81 6a 97 39 0f 3b 42 39 13 ff 67 39
       0.00025563556 0.00028880316 0.00018523283 0.00022124899
0003a0 1b 39 df 38 42 9d 55 39 22 3d fd b9 48 20 3a 3a
       0.00010644105 0.00020371846 -0.00048301468 0.0007100147
0003b0 e3 32 00 bb 2b b7 32 39 07 dd 4c 39 72 d1 75 39
       -0.001956158 0.00017043638 0.00019537295 0.00023443045
0003c0 bf b7 61 39 da 76 0b 3b 2b ef 5d 39 0f bf 2d 39
       0.00021526123 0.0021280558 0.000211653 0.0001656974
0003d0 5c 47 ca ba 93 25 7e 39 1b eb 45 39 a7 94 0b 39
       -0.0015432644 0.00024237325 0.00018874968 0.0001331145
0003e0 f3 64 80 b9 e5 9f 24 ba a3 4f 6d 39 44 c8 59 39
       -0.00024489276 -0.00062799297 0.00022631748 0.00020769337
0003f0 77 f4 4c 39 7e 75 f3 ba 66 51 15 39 f5 ec 60 39
       0.00019546026 -0.0018574444 0.0001424007 0.00021450578

conv2.W_rho f4 [16, 6, 5, 5]
000000 94 e2 6b c0 31 7c 6f c0 e2 bc 6f c0 83 1d 69 c0
       -3.6857042 -3.741955 -3.7459035 -3.6424263
000010 24 30 6d c0 27 7e 73 c0 5d fa 63 c0 af 94 6a c0
       -3.7060633 -3.8045747 -3.562156 -3.665325
000020 d4 79 62 c0 91 2e 68 c0 90 02 6a c0 72 fa 7e c0
       -3.5386858 -3.6278422 -3.6564064 -3.984036
000030 bc 60 6e c0 e6 fd 70 c0 ac 0a 6a c0 fc 6e 70 c0
       -3.7246542 -3.7654967 -3.6569014 -3.756774
000040 da c9 5f c0 89 ad 80 c0 fe ff 75 c0 a9 ea 7c c0
       -3.496695 -4.0211835 -3.8437495 -3.9518225
000050 ca 18 76 c0 95 76 6d c0 fc 66 70 c0 86 e6 71 c0
       -3.845263 -3.7103627 -3.7562857 -3.779695
000060 c8 0f 73 c0 2a fe 7f c0 55 6b 6e c0 5f b1 7d c0
       -3.7978382 -3.999888 -3.725301 -3.9639509
000070 3a e4 6a c0 58 32 62 c0 b3 af 68 c0 80 ce 65 c0
       -3.6701798 -3.5343227 -3.6357238 -3.5907288
000080 41 96 65 c0 10 be 69 c0 df 8a 6d c0 35 a2 67 c0
       -3.5872958 -3.6522255 -3.711601 -3.6192753
000090 5b e3 63 c0 8e 3a 6e c0 88 6c 67 c0 18 f8 75 c0
       -3.5607517 -3.722324 -3.6159992 -3.8432674
0000a0 c0 9f 6a c0 e6 f2 6e c0 b9 b0 68 c0 fa 00 6c c0
       -3.6660004 -3.7335753 -3.6357863 -3.6875596
0000b0 95 dd 70 c0 02 8b 72 c0 c3 e7 71 c0 a8 a8 5c c0
       -3.7635243 -3.7897344 -3.7797706 -3.447794
0000c0 13 4b 6a c0 70 8f 76 c0 60 a0 6a c0 c6 09 61 c0
       -3.6608322 -3.8525047 -3.6660385 -3.5162215
0000d0 38 5a 63 c0 b6 d3 73 c0 3a ab 6b c0 61 a5 6e c0
       -3.5523815 -3.8097968 -3.6823258 -3.728844
0000e0 12 31 70 c0 d0 99 62 c0 e3 d9 72 c0 32 28 81 c0
       -3.752995 -3.540638 -3.7945487 -4.0361567
0000f0 18 b7 6d c0 64 1a 6f c0 23 5d 67 c0 42 33 7c c0
       -3.7143002 -3.7359858 -3.6150596 -3.9406285
000100 41 61 73 c0 df 2a 6d c0 d3 3c 6c c0 79 24 76 c0
       -3.802811 -3.7057416 -3.6912124 -3.845976
000110 f4 b1 73 c0 4b e6 69 c0 22 e2 71 c0 81 4d 6f c0
       -3.8077364 -3.654681 -3.779427 -3.7391055
000120 e1 d8 72 c0 2a 2f 77 c0 2a 6c 5e c0 80 b6 61 c0
       -3.7944872 -3.8622537 -3.4753518 -3.526764
000130 be 00 6f c0 eb fc 67 c0 e2 b5 73 c0 f6 68 75 c0
       -3.7344203 -3.624812 -3.8079762 -3.8345313
000140 dd 21 7e c0 5f 50 73 c0 48 71 6d c0 e9 30 67 c0
       -3.9708169 -3.8017805 -3.7100391 -3.6123602
000150 2a 34 77 c0 b2 92 6e c0 f6 27 66 c0 7d f5 72 c0
       -3.8625588 -3.7277036 -3.596189 -3.7962334
000160 d7 8e 6d c0 86 f9 61 c0 e6 9f 6a c0 e7 63 59 c0
       -3.7118433 -3.5308547 -3.6660094 -3.3967226
000170 f2 52 6f c0 96 6a 70 c0 c8 6f 7b c0 a5 db 6e c0
       -3.7394376 -3.7565055 -3.9286976 -3.732156
000180 27 5b 81 c0 80 8f 73 c0 91 8b 70 c0 57 9c 76 c0
       -4.042377 -3.8056335 -3.7585185 -3.8532922
000190 f2 b5 6c c0 98 da 62 c0 4a a6 64 c0 92 2f 64 c0
       -3.698605 -3.544592 -3.5726495 -3.5654035
0001a0 1d 6f 6d c0 6d 93 6b c0 76 4b 66 c0 45 01 72 c0
       -3.7099068 -3.6808732 -3.5983558 -3.7813275
0001b0 70 9b 6d c0 0e b4 66 c0 1c 67 6c c0 51 7b 68 c0
       -3.7126122 -3.6047397 -3.6937933 -3.6325266
0001c0 e1 db 75 c0 a3 3a 85 c0 f8 27 60 c0 02 d3 6c c0
       -3.8415453 -4.163408 -3.5024395 -3.700379
0001d0 d3 92 6a c0 c9 41 82 c0 a1 87 84 c0 34 68 6f c0
       -3.6652114 -4.0705304 -4.1415563 -3.740735
0001e0 7e b9 6e c0 9d e4 73 c0 b0 1f 70 c0 9e 82 66 c0
       -3.7300715 -3.8108284 -3.751934 -3.6017222
0001f0 bf 22 6d c0 ee 6c 6d c0 05 c9 75 c0 35 ee 82 c0
       -3.7052457 -3.7097735 -3.8403943 -4.091578
000200 f5 61 6d c0 8e dc 76 c0 4c b1 6f c0 05 45 66 c0
       -3.7091038 -3.8572116 -3.7451963 -3.5979626
000210 1b 9c 68 c0 d7 d4 71 c0 d1 6d 64 c0 4c 84 64 c0
       -3.634528 -3.7786157 -3.5692027 -3.5705748
000220 2d 5d 72 c0 4d 10 70 c0 b0 ec 6c c0 96 53 76 c0
       -3.786937 -3.750995 -3.7019463 -3.8488517
000230 48 e5 70 c0 fa 6a 76 c0 9b 92 62 c0 89 53 6a c0
       -3.7639942 -3.8502793 -3.540198 -3.6613486
000240 1e 25 6a c0 bb b8 7d c0 1a 72 6c c0 b7 85 69 c0
       -3.6585155 -3.9644 -3.6944642 -3.6487863
000250 00 d9 6b c0 98 c5 5f c0 8a 25 69 c0 63 d9 71 c0
       -3.6851196 -3.4964352 -3.6429162 -3.7788932
000260 f8 1f 6b c0 5a 9a 69 c0 21 4c 75 c0 6d 2b 71 c0
       -3.6738262 -3.6500459 -3.8327715 -3.7682755
000270 f7 28 75 c0 0b e8 69 c0 86 72 73 c0 b5 ab 6e c0
       -3.8306253 -3.6547878 -3.803865 -3.7292302
000280 5e 7f 66 c0 d4 a6 70 c0 e4 a9 6c c0 87 82 7d c0
       -3.6015239 -3.7601824 -3.6978693 -3.9610918
000290 d8 78 77 c0 85 eb 61 c0 4c c8 66 c0 9a bd 73 c0
       -3.8667507 -3.53 -3.6059752 -3.8084474
0002a0 02 50 5f c0 1b 7e 6f c0 bd 72 6e c0 17 b3 74 c0
       -3.4892583 -3.7420719 -3.725753 -3.8234308
0002b0 8a b4 6a c0 04 68 68 c0 75 64 6f c0 59 a1 6b c0
       -3.6672692 -3.6313486 -3.7405064 -3.6817229
0002c0 e9 86 6b c0 c5 99 77 c0 d1 e7 6e c0 c8 a5 6d c0
       -3.6801093 -3.8687603 -3.732899 -3.7132435
0002d0 ed c9 6a c0 0c db 6f c0 97 8d 74 c0 1f 82 6f c0
       -3.6685746 -3.7477446 -3.821142 -3.742317
0002e0 62 00 6e c0 90 d6 6a c0 a5 1d 6e c0 09 c6 77 c0
       -3.7187734 -3.6693459 -3.7205594 -3.871462
0002f0 cf 84 69 c0 e1 ee 5e c0 8c bc 67 c0 2e 6d 72 c0
       -3.648731 -3.48333 -3.620883 -3.7879138
000300 70 79 62 c0 d6 33 75 c0 4f 67 7c c0 5a b4 64 c0
       -3.538662 -3.8312888 -3.9438055 -3.5735078
000310 fe 57 65 c0 22 34 79 c0 0c 08 69 c0 49 97 7a c0
       -3.5834956 -3.893807 -3.6411161 -3.9154837
000320 59 a8 6d c0 f9 1a 66 c0 31 17 6a c0 a2 7c 6c c0
       -3.7134001 -3.5953963 -3.6576655 -3.695107
000330 a9 be 7d c0 a8 2c 6e c0 9b b2 69 c0 6b e8 6c c0
       -3.964762 -3.7214756 -3.6515262 -3.7016857
000340 6c 84 79 c0 f5 4c 66 c0 0c 57 63 c0 cf 0f 66 c0
       -3.8987074 -3.598447 -3.552188 -3.5947149
000350 13 26 79 c0 37 b6 75 c0 eb a8 6d c0 f8 7d 69 c0
       -3.8929489 -3.8392465 -3.713435 -3.6483135
000360 fc cd 65 c0 bb 51 72 c0 42 99 66 c0 1f 67 6d c0
       -3.5906973 -3.7862384 -3.603104 -3.709419
000370 71 de 64 c0 52 9b 72 c0 f6 96 62 c0 b5 84 6e c0
       -3.5760767 -3.79073 -3.540464 -3.7268498
000380 3b 63 68 c0 4c d4 71 c0 17 c5 6b c0 3e 55 7d c0
       -3.6310565 -3.7785826 -3.6839044 -3.9583278
000390 8b 7d 67 c0 0a 58 60 c0 20 cb 6c c0 21 c8 64 c0
       -3.6170375 -3.5053735 -3.6998978 -3.574715
0003a0 ec 28 80 c0 b5 97 6a c0 16 7e 73 c0 2a 5d 74 c0
       -4.0049953 -3.6655095 -3.8045707 -3.8181863
0003b0 3d d0 65 c0 7d a6 70 c0 cc 47 6c c0 9b 81 79 c0
       -3.5908349 -3.7601616 -3.6918821 -3.8985355
0003c0 54 af 68 c0 7d 7d 68 c0 cd aa 69 c0 b5 bd 72 c0
       -3.6357012 -3.6326592 -3.6510499 -3.7928288
0003d0 48 ff 77 c0 a6 fe 64 c0 ee 27 6d c0 9e 59 78 c0
       -3.8749561 -3.5780425 -3.705562 -3.8804698
0003e0 44 57 75 c0 d7 97 65 c0 32 08 67 c0 42 42 6a c0
       -3.8334513 -3.5873926 -3.6098752 -3.660294
0003f0 23 db 69 c0 12 61 74 c0 16 70 6f c0 ca ee 68 c0
       -3.654 -3.8184247 -3.7412162 -3.6395745

conv2.bias_mu f4 [16]
000000 d8 a3 6d 39 2a b9 a3 39 0e d1 02 3a fa 6b 91 39
       0.00022663118 0.0003122774 0.0004990258 0.00027737004
000010 6f 72 a6 39 b8 af cb b9 a4 4d b8 39 1c fc ce 39
       0.00031747247 -0.00038850098 0.00035153062 0.00039479218
000020 5b 8b 99 39 93 53 c0 b9 f4 4b a9 b9 6d 33 de 39
       0.00029286262 -0.0003668336 -0.0003229078 0.00042381455
000030 fc 06 91 39 60 c9 3c 39 ff de 6b 3b 63 51 fd 39
       0.0002766176 0.00018004095 0.003599107 0.00048316558

conv2.bias_rho f4 [16]
000000 87 9b 72 c0 21 4d 77 c0 4d da 71 c0 99 ef 6e c0
       -3.7907426 -3.8640826 -3.778949 -3.7333739
000010 bf c3 6d c0 95 27 74 c0 08 c2 6a c0 49 68 65 c0
       -3.7150724 -3.814916 -3.6680927 -3.58449
000020 08 06 6f c0 d1 03 6c c0 46 70 6e c0 97 df 62 c0
       -3.734743 -3.687733 -3.7256026 -3.5448968
000030 2f af 70 c0 7b 63 80 c0 64 f3 6c c0 e8 09 60 c0
       -3.7606924 -4.0121436 -3.7023554 -3.5006046

fc1.W_mu f4 [120, 400]
000000 8a f7 3a b9 e8 fc c7 39 1c ed fd 39 a8 5e f0 39
       -0.00017830558 0.00038144668 0.0004843258 0.00045846892
000010 45 b5 31 3a 04 7f de 39 11 6d 97 39 af 9b 1a 3a
       0.00067790254 0.00042437774 0.00028882225 0.00058978325
000020 2c 8b 06 3a 43 87 dc 39 df e5 51 ba 69 62 6f 39
       0.00051324326 0.00042062448 -0.0008006971 0.00022829477
000030 5c f2 a0 b9 f9 16 ea 39 02 ce ca 39 45 92 d4 39
       -0.0003069815 0.00044649074 0.0003868193 0.0004054477
000040 3e 3c bd 39 1f d2 d7 39 30 c4 ee 39 74 20 12 3a
       0.00036093773 0.00041164548 0.00045541069 0.0005574294
000050 41 1b b8 39 72 8e 08 3a 98 54 0c 3a d7 92 eb 39
       0.0003511552 0.0005209214 0.00053531816 0.00044932097
000060 38 89 1e 3a 02 af 02 3b eb e6 6f ba 56 4e 0c 3a
       0.0006047669 0.0019940739 -0.0009151536 0.0005352249
000070 01 e2 ae 3b 4b 7d d7 39 a7 22 97 39 22 58 0c 3a
       0.0053370004 0.00041101346 0.00028826782 0.0005353709
000080 66 ad 0d 3a 0a 00 b9 39 bc bd 22 3a 09 58 b5 39
       0.00054045615 0.0003528598 0.0006208082 0.00034588602
000090 c8 60 1e 3a 02 a5 78 39 f5 38 63 39 89 c9 a6 39
       0.0006041643 0.00023712593 0.00021669625 0.00031812143
0000a0 e8 b0 c5 39 e3 2b e2 39 3b 91 0d 3a 5b 70 b4 39
       0.00037706573 0.00043138777 0.0005400364 0.00034415987
0000b0 8b e2 a9 39 c9 00 45 b8 95 30 ad 39 33 f8 ae 39
       0.0003240298 -4.696919e-05 0.00033033328 0.0003337279
0000c0 b4 54 a3 39 50 ab 05 3a 6f 62 c6 39 c8 37 fd 39
       0.00031152891 0.0005099075 0.00037838842 0.0004829748
0000d0 1f 3c b2 39 80 a0 fd 39 48 d8 39 3a 72 4b d3 39
       0.000339956 0.00048375502 0.00070894184 0.00040301267
0000e0 42 20 05 3a 5c 22 00 3b 41 87 a4 39 b2 00 0a 3a
       0.0005078354 0.001955173 0.0003138129 0.0005264386
0000f0 33 8a 9f b9 1f 3e 96 39 d1 55 ea 39 92 97 f2 3a
       -0.0003042981 0.00028656513 0.00044695896 0.0018508306
000100 d2 96 80 3a f8 1b 5b 39 57 56 28 3a 9b 29 1b 3a
       0.0009810573 0.00020895887 0.0006421557 0.00059189805
000110 6b b6 d8 39 85 90 f7 39 0c 99 ea 39 d3 16 f9 39
       0.00041334642 0.00047219187 0.00044745987 0.00047509986
000120 b8 31 3a 3a e8 74 e0 39 57 ba 36 3a e2 e0 24 3a
       0.00071027456 0.0004281171 0.0006970516 0.00062896137
000130 8c 1f bb 39 06 ab 0b 3a ee fc 01 3a 77 d0 cc 39
       0.00035690924 0.00053279137 0.0004958649 0.0003906523
000140 3b 1d 0a 3a 33 04 98 39 d7 ea b1 39 1c 8a 0c 3a
       0.0005268638 0.00028994828 0.0003393504 0.0005361156
000150 85 07 06 3a da 70 03 3a bd 74 e0 39 34 bf 99 ba
       0.0005112815 0.00050140696 0.00042811586 -0.0011729957
000160 a1 77 fb 38 6b 4f db 39 fa 97 5a 39 98 5b 40 3a
       0.00011990895 0.00041830106 0.00020846716 0.0007337867
000170 9f 22 92 3a 3a c1 3c 39 d8 5a 76 3b 73 92 f5 39
       0.0011149234 0.0001800106 0.0037590768 0.00046839155
000180 fd 9e ab 39 d0 47 03 3a 5f 48 7a bb 6a 8d f8 39
       0.00032734117 0.00050079543 -0.003819011 0.00047407608
000190 16 a3 92 39 e5 14 e5 39 cc 00 e3 39 c2 c9 22 3a
       0.00027968799 0.0004369385 0.00043297408 0.0006209874
0001a0 56 b4 19 3a b5 a6 d9 39 d3 39 0e 39 3c 7a 33 3a
       0.0005863359 0.00041513672 0.00013563716 0.00068465224
0001b0 ab 24 0d 3a ef 2f 11 3a 92 03 d3 39 77 64 f8 39
       0.0005384187 0.00055384537 0.00040247716 0.00047377098
0001c0 e2 de c1 39 46 ca 5e 3a 3e 99 09 3a 0b 32 63 39
       0.0003697789 0.0008498769 0.000524897 0.0002166705
0001d0 1f f9 1a 3b 5f 9f 51 3a 0b 73 f0 39 f7 50 0f 3a
       0.0023647023 0.00079964654 0.0004586208 0.0005467082
0001e0 d0 43 67 3a 98 c9 03 3a ee 9f 12 3a 39 71 cb 39
       0.00088220555 0.0005027293 0.00055932894 0.00038803535
0001f0 7c 86 b9 39 f3 43 9f 39 79 45 ee 39 a2 aa c6 39
       0.00035386148 0.0003037747 0.0004544666 0.00037892634
000200 de 71 c9 39 a7 c3 0d 3a 06 f6 e4 39 3b 17 36 39
       0.00038422545 0.00054078776 0.0004367085 0.00017365527
000210 58 db ef 39 cd f1 24 39 07 79 1d 3a 1c 7f 37 3a
       0.00045749056 0.00015730337 0.0006007109 0.0006999837
000220 7b fc b7 39 77 6e 63 39 b7 4c 1a 3a c8 2d 2d 3a
       0.00035092593 0.00021689558 0.0005886065 0.0006606248
000230 84 7b 2f 3a c0 9b 14 3a 69 a3 e0 39 48 a6 6f 3a
       0.00066941255 0.00056689605 0.0004284636 0.00091419043
000240 b1 a8 4b 39 64 a6 f3 39 cb ea 1c 3a 34 b7 b0 3b
       0.00019422431 0.00046472542 0.00059859146 0.0053929333
000250 48 cd 43 3a c8 b8 06 3a 0c 5e 92 39 15 99 04 3a
       0.0007469249 0.0005139229 0.0002791736 0.00050582114
000260 69 9d e3 39 40 61 e5 39 49 56 bb 39 fc 39 d1 39
       0.00043414094 0.0004375074 0.00035731707 0.00039906788
000270 d9 c0 d6 39 00 ea 01 ba b4 f9 b9 39 b6 33 d6 39
       0.00040960943 -0.0004955828 0.00035471993 0.00040855788
000280 28 20 f3 39 b2 84 02 3b 2d b6 fc 39 c3 0f 58 b8
       0.0004637253 0.0019915518 0.00048200917 -5.1513092e-05
000290 89 00 d4 39 b6 1e c9 39 6f ea d1 39 ed 66 09 3a
       0.0004043619 0.0003836059 0.00040038253 0.00052414724
0002a0 35 c5 d4 3b 4e 52 f0 39 11 67 9a ba a2 3d e7 39
       0.0064932355 0.0004583769 -0.0011779984 0.00044105673
0002b0 9d 6b fd 39 5b 3f 1d 3a b2 e2 3c 3a aa 19 d3 3a
       0.000483361 0.00059985154 0.0007205411 0.0016105671
0002c0 07 8a ab 39 d4 2f c6 39 56 2f 89 39 91 92 f1 b8
       0.000327185 0.00037801138 0.00026165944 -0.000115190756
0002d0 4f d6 0b 3a 2e d5 61 3a c9 b6 32 3a f2 69 2b ba
       0.00053343637 0.0008614835 0.0006817398 -0.00065389194
0002e0 bf d1 ec 39 eb b2 e4 39 e2 c1 b2 39 6c e9 00 3b
       0.000451697 0.00043620853 0.0003409526 0.001967038
0002f0 12 d9 d0 39 db b8 57 3a 3e ff f0 39 d2 4c a2 3a
       0.00039834582 0.0008229145 0.00045966537 0.0012382513
000300 9b d3 b2 39 26 94 02 3a 0d df 94 39 bb 74 97 39
       0.00034108464 0.0004981182 0.00028394946 0.00028887935
000310 bb 8e 3c 3a 8a 34 e3 39 c3 5e 82 bb 3f b3 ce 39
       0.00071928994 0.0004333596 -0.0039785816 0.0003942493
000320 c4 1d e1 39 b5 4b 55 39 ad ec ee 39 e4 fe 08 3a
       0.0004293752 0.00020341466 0.00045571235 0.000522597
000330 9e cf 12 3a 40 6f c7 39 af fe d1 39 6b 68 1f 3a
       0.00056003954 0.00038039126 0.0004005334 0.0006080928
000340 19 90 b4 39 ab 79 3b 3a 98 ae 1d 3a 5e 29 de 39
       0.00034439637 0.0007151614 0.0006015091 0.0004237396
000350 42 f9 02 3a 4f 25 bf 3b 4d a7 cf b8 c7 43 fb 39
       0.0004996249 0.005833305 -9.9016914e-05 0.0004792495
000360 34 5d 65 39 bd 4d b4 39 28 e0 ae ba a8 ff ca 39
       0.00021873863 0.00034390195 -0.001334195 0.0003871892
000370 df b5 33 3b b7 5b 3e 3a 5e 41 d4 39 69 89 86 ba
       0.0027421636 0.00072615914 0.00040484493 -0.001026434
000380 93 1f b1 39 0f 20 ff 39 b0 79 12 3a 1a 87 f0 39
       0.00033783595 0.00048661276 0.0005587591 0.00045877026
000390 3f 2a c6 39 9e d7 8e 39 98 5d fc 39 b0 f4 e0 39
       0.0003779698 0.00027244998 0.00048134918 0.00042906916
0003a0 1d 09 c0 39 58 83 2e 3a cf a1 12 3a 7b 60 c3 39
       0.00036627884 0.0006657145 0.00055935694 0.00037265182
0003b0 9b bf 15 3a 4a 95 02 3a 68 88 26 3a 55 ae b5 ba
       0.00057124504 0.0004981352 0.00063527236 -0.0013861159
0003c0 df e0 d1 39 99 b6 b4 3b e8 51 dc 39 ee 92 1d 3a
       0.00040031128 0.0055149314 0.00042022695 0.0006010969
0003d0 6c b7 d6 39 3c 8d 0f 3a ca bc bc 39 d7 5f 34 ba
       0.0004095392 0.00054760627 0.00035998813 -0.00068807363
0003e0 77 82 cc 39 40 11 f8 39 ae 99 16 3a 05 02 13 3a
       0.00039007116 0.00047315098 0.0005744946 0.0005607906
0003f0 46 a6 39 3a 2c 0b f4 39 ff de c2 39 14 19 04 3a
       0.00070819666 0.0004654763 0.00037168709 0.00050391373

fc1.W_rho f4 [120, 400]
000000 2d b4 6d c0 b4 d4 71 c0 79 e1 6e c0 6e fe 6a c0
       -3.714122 -3.7786074 -3.7325118 -3.6717792
000010 9c ca 61 c0 a6 5d 70 c0 84 5b 7d c0 f9 36 64 c0
       -3.5279913 -3.7557158 -3.9587107 -3.5658553
000020 24 cb 68 c0 56 f5 6e c0 e0 6d 75 c0 c3 89 82 c0
       -3.6373987 -3.733724 -3.8348312 -4.0793166
000030 40 2a 7f c0 79 26 7a c0 99 eb 74 c0 34 ca 6f c0
       -3.9869537 -3.9085982 -3.8268797 -3.7467165
000040 17 b4 73 c0 51 99 6f c0 d0 6a 6c c0 69 df 65 c0
       -3.8078668 -3.7437327 -3.6940193 -3.5917609
000050 9d 36 77 c0 36 8d 6b c0 5b 1a 67 c0 da c0 6c c0
       -3.8627083 -3.6804938 -3.6109836 -3.6992707
000060 06 b8 63 c0 66 26 66 c0 41 77 6e c0 8b 2b 67 c0
       -3.558107 -3.5960937 -3.7260287 -3.6120327
000070 fc 5d 70 c0 3a 7a 6f c0 9d f6 7f c0 c3 68 67 c0
       -3.7557364 -3.741835 -3.999427 -3.6157691
000080 9b bd 71 c0 eb ec 74 c0 3f 84 63 c0 7a b2 74 c0
       -3.7771976 -3.8269603 -3.5549467 -3.8233933
000090 78 c3 69 c0 b7 14 82 c0 3c 00 84 c0 48 5a 7a c0
       -3.6525555 -4.0650287 -4.1250286 -3.9117603
0000a0 01 97 75 c0 55 6d 73 c0 38 ed 66 c0 64 87 75 c0
       -3.8373415 -3.803548 -3.6082287 -3.8363886
0000b0 48 56 77 c0 48 a9 75 c0 a3 20 77 c0 7a 53 76 c0
       -3.8646412 -3.838457 -3.861367 -3.848845
0000c0 30 9d 7b c0 81 fd 68 c0 f3 63 6d c0 0c d8 6a c0
       -3.931469 -3.6404727 -3.7092254 -3.6694365
0000d0 82 01 76 c0 e6 e9 6a c0 d4 8d 67 c0 23 78 74 c0
       -3.843842 -3.670526 -3.6180315 -3.8198326
0000e0 22 8c 69 c0 ef 99 70 c0 7e b2 78 c0 02 54 68 c0
       -3.649178 -3.7593954 -3.8858943 -3.6301274
0000f0 76 aa 73 c0 bf ae 7e c0 64 9f 6d c0 b2 2c 67 c0
       -3.807279 -3.9794157 -3.7128534 -3.612103
000100 cb de 73 c0 00 24 84 c0 a4 f2 70 c0 35 71 64 c0
       -3.8104732 -4.1293945 -3.7648096 -3.5694096
000110 d1 a3 72 c0 9b 96 6b c0 bb 7c 6d c0 8e 39 6b c0
       -3.7912486 -3.6810672 -3.710738 -3.6753879
000120 06 fb 5e c0 26 e2 6e c0 a8 38 5f c0 b9 4a 62 c0
       -3.4840713 -3.732553 -3.487833 -3.5358107
000130 c8 51 74 c0 78 06 68 c0 5b da 69 c0 c9 3d 71 c0
       -3.8174915 -3.6253948 -3.6539524 -3.769396
000140 d7 0d 68 c0 46 6a 7d c0 ac 04 7a c0 82 3e 68 c0
       -3.6258447 -3.9596114 -3.9065351 -3.6288152
000150 28 f5 68 c0 6a 80 69 c0 68 73 6f c0 9a af 6f c0
       -3.6399632 -3.6484628 -3.7414188 -3.7450929
000160 9f c0 8c c0 19 52 6f c0 fb 59 84 c0 8c 91 5d c0
       -4.3985133 -3.7393858 -4.135984 -3.4620085
000170 7b 91 75 c0 74 83 86 c0 32 d5 6f c0 be 98 77 c0
       -3.8370044 -4.2035465 -3.7473874 -3.8686976
000180 77 cd 7a c0 da e9 69 c0 ac b2 73 c0 cf 56 6b c0
       -3.9187906 -3.6548982 -3.8077803 -3.6771734
000190 9a 74 7f c0 09 72 6e c0 c1 e9 6e c0 17 48 63 c0
       -3.9914918 -3.7257102 -3.7330172 -3.551275
0001a0 d8 ad 64 c0 fc d1 6f c0 51 56 73 c0 cc 95 60 c0
       -3.5731106 -3.7471914 -3.8021433 -3.5091429
0001b0 20 47 74 c0 8a fe 66 c0 33 18 71 c0 1a ec 6b c0
       -3.8168411 -3.6092858 -3.767102 -3.6862855
0001c0 be cc 73 c0 e6 a5 76 c0 db e2 68 c0 28 9d 83 c0
       -3.8093715 -3.8538756 -3.6388462 -4.112934
0001d0 33 8d 6e c0 a5 25 6c c0 8c ce 6c c0 45 fa 67 c0
       -3.727368 -3.6897976 -3.7001066 -3.6246502
0001e0 38 37 74 c0 99 ac 69 c0 74 7a 66 c0 53 10 72 c0
       -3.8158703 -3.6511595 -3.601224 -3.7822464
0001f0 0e f7 74 c0 91 df 74 c0 bb b6 6c c0 f0 60 72 c0
       -3.827579 -3.8261454 -3.698653 -3.7871666
000200 3c ec 71 c0 2a 0d 67 c0 ba 22 6e c0 88 bb 85 c0
       -3.7800436 -3.6101785 -3.7208695 -4.179142
000210 04 7a 73 c0 d4 2f 7a c0 be b9 63 c0 78 df 5a c0
       -3.8043222 -3.9091692 -3.5582118 -3.4198895
000220 a7 02 75 c0 e9 8a 83 c0 39 cb 60 c0 c8 56 5d c0
       -3.828287 -4.110707 -3.5124037 -3.4584217
000230 a5 d0 5f c0 d1 c0 65 c0 2d 56 6e c0 ae ea 6e c0
       -3.4971097 -3.5898936 -3.7240098 -3.7330737
000240 ac 59 6d c0 60 aa 6c c0 54 11 64 c0 6d 38 6f c0
       -3.7085981 -3.6978989 -3.5635576 -3.737819
000250 40 41 5b c0 23 c7 68 c0 62 28 80 c0 6f 54 69 c0
       -3.4258575 -3.6371543 -4.0049295 -3.6457784
000260 74 4c 6e c0 35 ef 6d c0 e2 7e 74 c0 aa 24 71 c0
       -3.7234163 -3.717725 -3.8202443 -3.7678628
000270 79 0c 76 c0 55 c7 65 c0 ed 8f 74 c0 b3 8d 70 c0
       -3.8445113 -3.5902913 -3.8212845 -3.7586486
000280 fb 9e 6c c0 4d 30 75 c0 b4 00 6b c0 87 86 7e c0
       -3.6972034 -3.831073 -3.671918 -3.976961
000290 9f 9f 70 c0 0f 3a 72 c0 bf 04 71 c0 11 2d 67 c0
       -3.7597425 -3.7847936 -3.7659147 -3.6121256
0002a0 2e 3a 60 c0 76 c6 6c c0 9f 96 67 c0 ad 9c 6d c0
       -3.503551 -3.699613 -3.6185682 -3.7126877
0002b0 41 fb 6a c0 25 46 64 c0 4d d0 5c c0 e4 a2 73 c0
       -3.6715853 -3.5667813 -3.4502137 -3.806817
0002c0 58 52 80 c0 05 e3 72 c0 9c a3 80 c0 e7 d0 73 c0
       -4.0100517 -3.7951062 -4.019972 -3.8096254
0002d0 4d 6f 68 c0 2c 2f 7c c0 e6 97 63 c0 fb dd 6a c0
       -3.6317933 -3.9403791 -3.5561461 -3.6697986
0002e0 1c 1c 6d c0 b4 c6 79 c0 ed 52 75 c0 c3 83 6a c0
       -3.7048407 -3.9027529 -3.8331864 -3.664292
0002f0 49 04 71 c0 2c 59 66 c0 bc 4b 6c c0 b2 24 6e c0
       -3.7658865 -3.5991926 -3.6921225 -3.7209897
000300 8c db 79 c0 d5 04 6a c0 d7 cc 7e c0 8c c8 7d c0
       -3.904025 -3.656545 -3.9812524 -3.9653654
000310 3f 7e 5e c0 76 3b 6e c0 c7 d5 66 c0 bb 3a 71 c0
       -3.4764555 -3.7223792 -3.606798 -3.7692096
000320 a1 d4 6e c0 1f 51 84 c0 b0 c4 6a c0 48 0b 68 c0
       -3.7317278 -4.1349025 -3.6682549 -3.6256886
000330 3e 0b 66 c0 b6 7e 71 c0 a9 5f 70 c0 3f 52 63 c0
       -3.5944362 -3.7733588 -3.7558386 -3.551895
000340 0a 13 75 c0 9a ae 5d c0 9d f3 63 c0 84 cd 6e c0
       -3.829287 -3.4637818 -3.561744 -3.7312937
000350 bb 6a 69 c0 d7 04 6b c0 74 10 69 c0 39 9d 6a c0
       -3.6471393 -3.6721704 -3.6416292 -3.665846
000360 19 36 83 c0 cc 3c 7a c0 22 5a 64 c0 64 46 71 c0
       -4.1003537 -3.9099607 -3.5680013 -3.7699213
000370 ca 25 64 c0 a6 35 63 c0 7a d7 6f c0 8c d0 75 c0
       -3.5648065 -3.5501494 -3.7475266 -3.8408537
000380 de 8a 78 c0 37 55 6a c0 14 ad 66 c0 50 a3 6c c0
       -3.8834758 -3.661451 -3.6043139 -3.6974678
000390 dd b9 72 c0 00 f8 7f c0 c6 2a 6b c0 1d 66 68 c0
       -3.7925942 -3.9995117 -3.6744857 -3.6312325
0003a0 85 6d 78 c0 8c 46 6e c0 3b 14 66 c0 ca 6f 73 c0
       -3.8816845 -3.7230558 -3.5949848 -3.803698
0003b0 12 b8 65 c0 cd 99 69 c0 3d ae 63 c0 8c 11 71 c0
       -3.5893598 -3.6500123 -3.5575097 -3.766696
0003c0 29 89 70 c0 32 67 6e c0 70 dc 6f c0 4e e6 65 c0
       -3.7583716 -3.7250485 -3.7478294 -3.5921817
0003d0 5b 59 70 c0 06 7d 67 c0 b8 07 77 c0 1d 11 68 c0
       -3.7554538 -3.6170058 -3.859846 -3.6260445
0003e0 25 05 7c c0 d9 a6 6b c0 86 75 65 c0 3f 95 66 c0
       -3.937814 -3.6820586 -3.585298 -3.6028593
0003f0 54 d4 5e c0 fa f9 6b c0 90 19 73 c0 95 bc 69 c0
       -3.4817095 -3.6871324 -3.7984352 -3.6521351

fc1.bias_mu f4 [120]
000000 45 9d 0e 3a 4a 08 34 3a 17 81 23 3a 1a 1b dc 39
       0.0005440305 0.000686769 0.00062371924 0.00041981862
000010 8d 7a f6 39 41 b9 61 3a 07 6c 21 3a de 26 22 ba
       0.00047012084 0.0008610674 0.000615776 -0.0006185601
000020 64 12 d3 39 d8 eb 0f 3a c5 e9 f9 39 88 4e 00 3a
       0.00040258758 0.00054901605 0.00047667153 0.00048945146
000030 b8 65 2a 3b 7e 76 11 3a da cd 9b 39 f8 bb f6 3a
       0.002600057 0.0005548968 0.00029717275 0.001882433
000040 b9 1d 4f 3a ba 12 cf 39 2e 8a bb 39 74 f9 b1 39
       0.00079008524 0.0003949607 0.0003577037 0.00033945928
000050 0a 44 23 3a 5f 30 3f 3a 03 83 5b 3a a6 c2 ba b9
       0.0006228095 0.00072932796 0.0008373709 -0.0003562171
000060 08 0a aa 39 e5 75 d2 39 3d eb ea 39 82 6d 13 3a
       0.000324324 0.0004014216 0.00044807224 0.0005623923
000070 eb dd 79 3b 26 c7 1d 3a ce 32 31 3a 9a ca 93 39
       0.0038126658 0.000601875 0.00067595846 0.00028188975
000080 12 07 9c 39 35 ef 05 3a 2d 1e 9a 3a 51 ec 88 39
       0.00029759906 0.0005109192 0.0011758261 0.0002611601
000090 63 65 3c 39 aa 32 9d b7 64 1c c2 39 ae 31 b6 39
       0.00017966847 -1.873945e-05 0.00037023716 0.0003475076
0000a0 f3 31 a3 39 85 21 e3 39 c1 8b 0e 3a 9c b5 41 3b
       0.00031126998 0.00043321788 0.0005437695 0.002955771
0000b0 5e a8 02 3a c9 6a c8 39 ac 26 f4 39 81 ec a2 3a
       0.0004984195 0.00038226534 0.0004656812 0.0012430103
0000c0 6d 5c 1a 3a a8 04 04 3a e0 f9 dd 39 70 b5 89 39
       0.00058884063 0.0005036094 0.00042338576 0.00026265858
0000d0 8a 3c 72 3a a5 b6 20 3a 4b 62 eb 39 3e 4f 89 3a
       0.00092405884 0.0006130732 0.00044895927 0.0010475887
0000e0 ac dc 50 ba 7a 4f 16 3a 79 59 63 3a f4 d4 ef 39
       -0.0007967453 0.0005733889 0.0008672695 0.00045744295
0000f0 53 7c c4 39 e1 ab d8 39 07 77 a4 39 fb bd 10 3a
       0.00037476662 0.0004132679 0.000313692 0.00055214734
000100 87 38 19 3a 6b 85 68 3b c4 12 d2 39 4b 33 1e 3a
       0.000584491 0.0035479914 0.00040068303 0.0006034865
000110 c9 41 41 3a c2 be 99 3b ab 8f 2d 3a 66 2e e1 3a
       0.00073721685 0.0046919296 0.00066208345 0.0017179966
000120 49 83 24 3a e7 e7 a6 39 01 28 25 3a 3c ac ad 39
       0.00062756665 0.00031834768 0.00063002115 0.00033125456
000130 8a a9 0b 3a 6b 4f 84 3a 32 23 8e 39 6e e5 3e 3a
       0.00053276925 0.0010094469 0.00027110573 0.00072821125
000140 d6 47 3a 39 ec 19 a1 b8 1e 08 f4 39 40 d6 0e 3a
       0.00017765103 -7.6819066e-05 0.00046545354 0.0005448796
000150 aa ca 1f 3a 6a d8 ec 39 bf 98 e1 39 cd 34 30 3a
       0.0006095568 0.0004517467 0.0004302915 0.0006721735
000160 17 b2 97 3a fb 39 af 3b 5b a0 18 3a 5b ca 25 3a
       0.0011573461 0.005347488 0.00058222347 0.0006324404
000170 ce d4 e1 ba 27 44 07 3a bc 0e 8e 39 42 d0 c7 3a
       -0.0017229558 0.0005159997 0.0002709533 0.0015244561
000180 9d 0c 0b 3a ee 42 34 3a f9 d4 88 ba 81 bf ef 39
       0.0005304309 0.00068764284 -0.0010439447 0.00045728314
000190 d4 10 e3 3a fb 99 6e 3a 5a 1c 00 3a a9 2e 1d bb
       0.0017323741 0.00091019244 0.0004887037 -0.002398411
0001a0 38 32 86 39 17 d4 13 3a 37 04 93 39 4c dd 4a 39
       0.00025595888 0.0005639209 0.00028041165 0.0001934666
0001b0 47 9f d8 3a a7 57 54 3a 94 00 75 ba d1 c1 90 bb
       0.001652696 0.00081002194 -0.00093460944 -0.004417636
0001c0 8c 52 ca 39 0d d0 1e 3a cf e6 be 39 7e e2 8a 39
       0.00038589945 0.00060582237 0.0003641159 0.0002649016
0001d0 8d 38 0c 3a b8 1b 35 3a 78 fa 9b 39 e9 93 30 3a
       0.0005349003 0.00069087325 0.00029750518 0.00067359075

fc1.bias_rho f4 [120]
000000 ea 74 6d c0 ae 01 6a c0 2d b8 6c c0 3d b8 6f c0
       -3.7102609 -3.6563525 -3.6987412 -3.74562
000010 b4 05 76 c0 eb c0 67 c0 36 a2 64 c0 92 89 6b c0
       -3.844098 -3.6211498 -3.5724006 -3.6802716
000020 35 20 73 c0 3a 6f 79 c0 da 54 6b c0 92 ca 65 c0
       -3.7988408 -3.8974137 -3.677054 -3.590489
000030 b3 e1 6f c0 84 86 6a c0 3a c3 7e c0 2b ae 75 c0
       -3.7481506 -3.6644602 -3.9806657 -3.8387554
000040 00 d0 66 c0 02 0e 66 c0 81 c3 76 c0 f9 25 72 c0
       -3.6064453 -3.594605 -3.8556826 -3.7835677
000050 a2 69 6d c0 34 db 60 c0 5d 0f 6f c0 f8 a9 76 c0
       -3.7095723 -3.513379 -3.7353127 -3.854124
000060 6e 55 77 c0 e5 5b 7f c0 f3 90 6b c0 e7 8f 70 c0
       -3.8645892 -3.9899838 -3.680722 -3.758783
000070 fa 4c 6c c0 a2 b8 73 c0 a9 e2 61 c0 cf 03 7c c0
       -3.6921983 -3.808144 -3.5294592 -3.9377325
000080 f2 bb 79 c0 7d 86 6e c0 93 a3 6a c0 40 bc 74 c0
       -3.9020963 -3.7269585 -3.6662338 -3.8239899
000090 92 66 84 c0 90 14 7b c0 3b 31 69 c0 0f ea 72 c0
       -4.137521 -3.92313 -3.6436298 -3.7955358
0000a0 cd 49 7e c0 a6 b3 74 c0 00 97 75 c0 5e aa 69 c0
       -3.9732544 -3.8234649 -3.8373413 -3.6510234
0000b0 5c 46 6d c0 18 35 76 c0 bf f0 6a c0 d6 ce 75 c0
       -3.7074194 -3.8469906 -3.670944 -3.8407493
0000c0 6d 93 6d c0 8f ca 6d c0 e1 34 76 c0 3b 65 83 c0
       -3.7121232 -3.7154882 -3.8469775 -4.106107
0000d0 3b 14 68 c0 74 d0 6a c0 10 4d 7a c0 eb cb 68 c0
       -3.6262348 -3.668973 -3.9109535 -3.6374462
0000e0 dc c7 75 c0 f1 63 6b c0 7b 73 65 c0 b1 ae 76 c0
       -3.8403234 -3.677975 -3.5851734 -3.8544123
0000f0 b6 dd 7b c0 91 86 6b c0 b7 27 76 c0 a4 3f 66 c0
       -3.9354072 -3.6800883 -3.846174 -3.5976343
000100 2e 9c 79 c0 8e ec 6e c0 a0 27 68 c0 3e e8 6d c0
       -3.9001575 -3.7331882 -3.6274185 -3.7173
000110 e1 a0 76 c0 4c b3 6e c0 37 06 6d c0 d1 4f 70 c0
       -3.8535693 -3.7296934 -3.7035043 -3.7548716
000120 10 0f 69 c0 3f ab 68 c0 06 ae 71 c0 7e f5 6a c0
       -3.6415443 -3.635452 -3.7762465 -3.6712337
000130 ba 5c 76 c0 cd d7 63 c0 c6 87 77 c0 86 9f 6a c0
       -3.8494096 -3.5600464 -3.867662 -3.6659865
000140 8d ca 71 c0 70 81 68 c0 24 4c 72 c0 51 05 6d c0
       -3.7779877 -3.6329002 -3.7858973 -3.7034495
000150 1c fd 69 c0 3e e6 6b c0 b5 52 67 c0 47 2b 67 c0
       -3.6560736 -3.6859279 -3.614423 -3.6120164
000160 a2 ae 60 c0 15 f4 70 c0 8a d9 6d c0 10 1e 6b c0
       -3.5106587 -3.7648976 -3.7164025 -3.6737099
000170 6e bc 71 c0 4c 5e 64 c0 fa 18 86 c0 5f c9 70 c0
       -3.7771258 -3.5682554 -4.190549 -3.7622907
000180 1d 15 74 c0 da 2a 6d c0 6a 52 72 c0 ec 9c 6e c0
       -3.8137887 -3.7057405 -3.7862802 -3.7283278
000190 a4 02 64 c0 37 7b 60 c0 8a 13 74 c0 e1 16 69 c0
       -3.5626612 -3.5075204 -3.8136926 -3.6420214
0001a0 27 9b 72 c0 14 a4 72 c0 48 7e 6f c0 08 85 79 c0
       -3.7907197 -3.7912645 -3.7420826 -3.8987446
0001b0 b4 49 68 c0 6c c2 63 c0 f2 ef 67 c0 61 5e 67 c0
       -3.6294985 -3.5587416 -3.62402 -3.6151354
0001c0 97 55 78 c0 f3 ec 6c c0 99 1c 6b c0 3d e4 78 c0
       -3.880224 -3.7019622 -3.6736205 -3.8889306
0001d0 ec b5 69 c0 1d f6 6e c0 61 1f 6f c0 b4 e4 65 c0
       -3.6517286 -3.7337716 -3.7362902 -3.592084
